Lab07_learning_on_sets_and_graph_generative_models/code/part1/model_lstm.pth.tar (torch, 622178 bytes, 18 tensors)

embedding.weight f4 [11, 128]
00000000: 9b89 47be dfb5 f83e ae91 2bbf b64a a5bf
00000010: fb62 8dbf a2ea 913f 0eaa d0bd bb5b f13f
00000020: d424 f73e c359 f33d df7e d1bf 79ba 52bf
00000030: 3ce9 bb3e 4f43 493f 7e7f 713f 6667 573e
00000040: c281 44bf 89fe a2be e15f 85be ac24 2bbf
00000050: 51a6 6c3e b9ee 043e 44a3 c83e 84e4 9e3e
00000060: 3117 6f3f 5f3d 973f 1bc9 0fbf 32a1 093f
00000070: ca1c 0ac0 d349 56be fed0 e8bf efa4 36be
00000080: 8aa6 60be 34b8 d13e 12a9 66bf df35 693f
00000090: b059 6b3e e93f 27c0 f0c4 0d3f ae15 4b3e
000000a0: 9d74 a83f 10ac e73f e968 d5be 0e62 16bf
000000b0: cdfa a43f 3ee1 83bf 6bfb 85be bd84 d53f
000000c0: 75f3 8b3f ab07 18bf 757c 013e 3c2c 2e3f
000000d0: 7fec 443e 508a 163e c9da 0c40 4512 093f
000000e0: 8c04 b7be 48be 2540 f9e7 153e 55ca 02bf
000000f0: 890f 28bd efb2 f53d 6519 cf3e 70fa de3f
00000100: 7c23 6abf 4486 be3e 9684 523f f213 423f
00000110: 22fb 50bf 8192 c3be 8dc0 b23f af77 de3f
00000120: ef48 1a40 fa4d afbf 9d79 70bc 3d92 0740
00000130: 46ea 3fbf f39c 1c40 6fdd 0f3f f9b2 cd3e
00000140: d731 8bbf cf16 803e c863 92be 4ae0 fbbd
00000150: fc99 403e 65bf 0bbe 3386 09bf 7b25 c4be
00000160: a718 2a3f 8bdd 1abe c3a2 713f 5576 29bf
00000170: d4a0 d83e 36ea dc3e e863 cbbf 3e55 9dbe
00000180: 0768 423f 9cde a9be 6dad 1c40 9fc5 e73e
00000190: 55f4 cdbd 39d8 c63f 494a 47be 508d 27be
000001a0: e8db 1b3f 503d f53e 60d5 213f 78da 47be
000001b0: c62c ff3d 520d c8bb 172c 07bf 7d40 f93f
000001c0: 2200 9dbf d481 52bf 1559 2e3f 050a 5dbe
000001d0: f078 e8be 1540 4f3f f726 f43d 701f c23f
000001e0: 33fb debe d850 31bd bb94 aebe 11b6 223e
000001f0: 0354 e13f c06d fa3e 3ec0 aabf 6f32 cfbf
00000200: 4c9e 24bf d208 19be 93ba a73d 3af0 533f
00000210: d38a fb3e afc1 563f 5498 9c3f b2e9 bebe
00000220: e8a1 f23e 9e81 4f3f 6e4b f7be f0ca 35bf
00000230: e760 35bf 9d0a 803f 1aa3 8cbf c5ac f13f
00000240: 2c54 39bf b00a 8e3f d83b 9e3f 56c5 23bd
00000250: b80a ebbf d7b1 223f 347e e2bd 005d 95bf
00000260: 07b1 7cbf 6a5e 683f 5ef7 033f dd90 873f
00000270: b39d 85be 0f3a f0be b57d b03f 7e2f 853f
00000280: 6805 2fbe ab1f 96bd 1f70 85bf d336 013f
00000290: 4272 0a3d 62a1 40bf 695f 603b bf33 553f
000002a0: e504 5d3f d0df e83e cc91 743f 6c96 82bf
000002b0: 2e60 883e 15f7 523f 8ff9 2b3e 5128 78bf
000002c0: 5efb dabf ff20 c4be d9cd 12c0 5c0b 2c40
000002d0: 8d8d c83e 9044 c8bf 93e2 07be 31a5 0a3f
000002e0: c083 c5bf c9f8 a73e 34db 1a3d 89b9 0b3e
000002f0: 5783 183f aa32 3b40 c870 10bf 0990 f33e
00000300: d3ac b53d 3344 093f b365 253e 2d32 583f
00000310: 5710 3b3f 1b08 533f c2c7 77bf 6531 1f3f
00000320: 39f6 8e3d 893c 6f3f dfac 483f 149b 913e
00000330: 31be 333f 65b4 80be e66e 6bbe 3880 eabe
00000340: 7af9 e6bd 11cf f53f a4d5 05bf 1ff2 04be
00000350: 87ad c13f b3b4 a03f d077 db3e c4ba 5d3f
00000360: 0fc7 3dbe 7334 01bf 462f 283f fcab 95bf
00000370: 8c9d fdbe 6a5b c5be 01b6 0340 0db2 0cc0
00000380: d457 6abe 4852 afbf 2766 103f fbb5 aabf
00000390: bb83 893f 7ec7 b6be 84ae f83e 3cc6 323e
000003a0: b2e2 0e3f 42f6 803d 4ab9 96bf a592 a63e
000003b0: f24b 4fbf 8b54 2e3e e39b 47be 6173 ccbd
000003c0: 5428 c53f 6478 ddbf 2937 893d 6b7c e3bf
000003d0: 084e e43e cd36 e2be 1ad8 4d3f baa5 c8be
000003e0: 82ec c8be c296 683e 9e28 af3e 68d7 08bf
000003f0: 6ce8 97be 286e c93f 2363 06c0 14e9 783d
-0.19486086 0.48576257 -0.67019165 -1.2913425 -1.1045831 1.1399729 -0.10188685 1.8856119
0.48270285 0.11882355 -1.6366843 -0.82315785 0.3670138 0.7861833 0.9433516 0.21035537
-0.76760495 -0.3183482 -0.26049712 -0.6685283 0.2311032 0.1298169 0.39187062 0.3103372
0.9339476 1.1815604 -0.5616624 0.5376159 -2.1580071 -0.20926599 -1.8188779 -0.17836355
-0.2193853 0.40960848 -0.9010173 0.91097826 0.22983432 -2.6132758 0.5537863 0.19832489
1.3160588 1.8099384 -0.41681603 -0.5874337 1.2889038 -1.0303113 -0.2616838 1.6681134
1.0933672 -0.593867 0.12645133 0.68036246 0.19230841 0.147012 2.2008536 0.535435
-0.35745656 2.5897388 0.14639272 -0.51089984 -0.04103044 0.119970195 0.40449062 1.7420177
-0.91460395 0.37211812 0.8223356 0.75811684 -0.816332 -0.3819771 1.3965012 1.7380275
2.4107015 -1.3695672 -0.014677432 2.1183007 -0.7496685 2.4470794 0.56197256 0.40175608
-1.0874585 0.25017402 -0.28591752 -0.12298639 0.1880874 -0.1364723 -0.53720397 -0.38309845
0.66443866 -0.15123574 0.9438898 -0.66196185 0.42310202 0.4314744 -1.5889864 -0.30729097
0.75939983 -0.3317765 2.448085 0.4526796 -0.10056368 1.5534736 -0.19461931 -0.163625
0.60882425 0.4789834 0.6321621 -0.19516933 0.12459712 -0.0061051035 -0.5280165 1.9472805
-1.2265666 -0.8222935 0.6810468 -0.21585853 -0.45404768 0.80957156 0.119214945 1.5165844
-0.43551025 -0.04328999 -0.34097847 0.15889765 1.7603763 0.48911858 -1.3339918 -1.6187266
-0.6430404 -0.14944771 0.08189883 0.8278843 0.49129352 0.8388929 1.2233987 -0.3728767
0.4738915 0.81057155 -0.48299736 -0.71012783 -0.70850986 1.0003239 -1.0987275 1.888085
-0.7239406 1.1097012 1.2362013 -0.039983116 -1.8362646 0.6355261 -0.110592276 -1.1669006
-0.9870762 0.90769064 0.5154933 1.0591084 -0.26096877 -0.46919295 1.3788363 1.0405118
-0.17091906 -0.07330259 -1.0424842 0.5047428 0.03380037 -0.7524625 0.0034236556 0.83282083
0.86335593 0.45483255 0.9553497 -1.0202155 0.2663588 0.8240827 0.16794418 -0.9693652
-1.7107961 -0.38306424 -2.293814 2.6881933 0.39170495 -1.5645924 -0.13270025 0.5415831
-1.5430832 0.32806996 0.037806705 0.13644995 0.5957541 2.9249673 -0.5642209 0.47570828
0.08870854 0.5361969 0.16152076 0.8445156 0.7307181 0.8243424 -0.9678918 0.62184745
0.06980557 0.93451744 0.7838878 0.28438628 0.70212084 -0.2513763 -0.22991523 -0.45800948
-0.11278053 1.9203817 -0.52279115 -0.12982987 1.5131081 1.2555145 0.42864847 0.86613107
-0.18532966 -0.50470656 0.65697134 -1.169311 -0.4953426 -0.38546306 2.0579836 -2.1983674
-0.22885066 -1.3696985 0.5640587 -1.3336786 1.0743326 -0.35699075 0.48570645 0.17458433
0.5581466 0.0629697 -1.1775296 0.32533756 -0.8097526 0.17024438 -0.1949306 -0.09982944
1.5402932 -1.7302365 0.06699974 -1.7772344 0.44590783 -0.44182435 0.8040787 -0.3918894
-0.3924294 0.2271376 0.34210676 -0.53453684 -0.2966951 1.5736742 -2.0998008 0.060769156

lstm.weight_ih_l0 f4 [256, 128]
00000000: 6236 803d 6d5b 5d3c 498b 97bd 328f edbd
00000010: a1c2 363d 65fa c9bd e4b1 46be 0998 06be
00000020: a410 6e3d 3ba5 7a3d 0f72 e1bb 6c8b 4bbc
00000030: 7ecd 5cbd 4446 29bd d5f5 c2bd ff1f 0dbe
00000040: 92ac 893d bb9c 2fbe 98cb 9e3d 01ff e73c
00000050: e49d e2bd 8165 cdbd fd2b 533d e540 ca3d
00000060: 6210 b33d d303 efbd 6309 1f3c 3517 b7bd
00000070: 2929 243e a61a 7b3d 22c3 adbc aa0f 25be
00000080: 5798 c33c 5436 b03d 2877 24bd 114d b73d
00000090: a40e 8f3d d66d 5ebd ab4c 08bd 335f ce3c
000000a0: 5eeb febd 6e26 a83d a9c6 51bc 8af8 093e
000000b0: 425f 8abd ebbf 423c d75e 18bd 7d18 a9bd
000000c0: b313 d23c 55bc 0e3e d069 01bd 959c 17be
000000d0: b7d1 3dbe 7831 89bd cf07 9d3d fddd e33c
000000e0: ab6d 883e cac1 063e 2ed4 b7bd 8cf7 11be
000000f0: 178c f3bd 4d54 9d3d 201c d53d fcc3 22be
00000100: 7621 693d 4fb4 8b3d 4ee3 10bd 51c5 f5bd
00000110: 375b a5bd 6d9e 87bc 8132 6c3c 97fa d73d
00000120: 5274 b3bd acb5 3f3d af7c c5bd d219 013d
00000130: 40d9 29be 7e8d a3bd 3924 013e 87e5 2c3e
00000140: 06e6 64bd b6f0 73be b2cb 8bbd 4336 da3d
00000150: 401d e83a bfe8 783c beed 363e 0375 22bd
00000160: 4019 0db8 3eaa 303d 1675 d2bd 1e3c 473d
00000170: 56b8 01be 233f c73d d229 e33d 0e7f 9b3c
00000180: 2d69 8dbd 6d26 e23d 2e0d 313e 5319 243d
00000190: 436f c23c b967 993d de00 1abe 144f 27be
000001a0: d667 20be 146d 27bb 28b9 1abd 80a5 95bd
000001b0: 3311 81bd 5f12 50bc 095f f6bd ba88 253c
000001c0: e8ce 263d fe2a b03d 92cc 023e 75c3 a5bc
000001d0: 6ac5 69bc e2e5 01bd 0780 2ebe 1349 d4bc
000001e0: ab93 17be c1d8 003e 88ee 3cbd 1582 103e
000001f0: 5f2f b13d e9a6 86be 69fb 773d 0bcd f3bc
00000200: 077b c7bc 4dcd 48be fee8 13be 6de9 8e3e
00000210: de50 293e 8547 283e e3e6 5e3d cf8e 803d
00000220: d55e 2cbe 2262 83b9 6c3a 14be 3396 853d
00000230: 4d60 30be 9106 273c ba5a 553e 3340 253e
00000240: 354b c0be 84bb 693e 7d58 0d3d a510 f5bc
00000250: e341 29bd 8fbd 02bd 34e9 a93b fd41 8f3c
00000260: 703b 9fbc 9e48 b43d 7d46 dfbe aefb 413d
00000270: 283e 8cbe 4fdd dcbc e64c 29be d29a c2bb
00000280: ae6f 8c3d 7689 82bd 8407 2dbd 8884 483e
00000290: e7b2 593d 6499 103d cec6 84bc 2ec5 693e
000002a0: 3e47 223e f746 113a 448c 07bd 8966 85bd
000002b0: 0fea 123e b9de 763d c73e 20be 2111 5fbc
000002c0: 5e9f 633e 16d8 4ebe c18d 99be 4b47 f23d
000002d0: b40f 4a3e ad29 2d3d bbee 123e 406a 38bd
000002e0: 83a4 37be caaf 843d db9e e13c 63c1 c5bb
000002f0: 8afe b33c e04f 173e 384c febd 0412 1f3e
00000300: e14a c83d bb59 69bd 9c77 b23d 01d0 8c3e
00000310: a621 a3bd 2832 11be 9c6c 903d c06a afbb
00000320: ce66 363e a923 06bd 3b7d 9b3d 6cde 7a3d
00000330: 1215 b0bd e5f3 d4bd 14af acbd afe6 5cbd
00000340: 0299 8f3b 1ba0 b23d e249 94bc af81 4f3d
00000350: 4ee4 37bd e4d5 493b 319a 56bd 55a4 babb
00000360: 9b34 1abc 6cc6 223d e716 c73d a94c c5bc
00000370: 0865 ebbd 83de 8abd b601 e8bd 4b45 e3bd
00000380: 07c9 a83d 4da2 5ebe e916 bcbd 2aba 8fbd
00000390: c881 703e 1dc7 c43d fe5b 803e bc48 363d
000003a0: 7553 823d d38e 39bd ac15 533e e995 debd
000003b0: 2475 c2bb dc76 0f3e 5b9d b9bd b8d6 bdbd
000003c0: 7a2c c23d ca37 31bd d96c 9b3c b5eb 1fbd
000003d0: 2ea8 0d3e cabc adbe 8990 edba be9a bb3d
000003e0: ba01 82be e563 5d3d 5829 ccbd 385a 70bd
000003f0: bd1a 333e 73c1 e43e 26cd 64be f865 26be
0.06260373 0.013510567 -0.073996134 -0.11599578 0.044619206 -0.09862212 -0.19403797 -0.13143934
0.05812134 0.061192732 -0.006880052 -0.0124233775 -0.05390691 -0.041326776 -0.09519545 -0.13781737
0.06722368 -0.17149632 0.07753676 0.028319838 -0.110652715 -0.10029126 0.051555622 0.09875659
0.08743359 -0.11670651 0.009706828 -0.08939973 0.16031326 0.06130471 -0.02121121 -0.16119257
0.023876352 0.08604112 -0.0401527 0.08950246 0.06985214 -0.054303966 -0.03327624 0.025191879
-0.124472365 0.08210455 -0.012803712 0.13473716 -0.0675645 0.011886577 -0.03719982 -0.08256624
0.025644159 0.1393903 -0.03159505 -0.14805825 -0.18537031 -0.066988885 0.07667505 0.027815813
0.2664617 0.13159862 -0.08976017 -0.14254588 -0.118919544 0.07682095 0.10405755 -0.15895075
0.056916676 0.068215005 -0.035373025 -0.12000526 -0.080740385 -0.016555035 0.014416338 0.10545843
-0.08762421 0.046804115 -0.09642922 0.031518765 -0.1658678 -0.07985972 0.12611474 0.16884433
-0.05588343 -0.23822293 -0.06825961 0.10654881 0.0017708912 0.01519221 0.17864129 -0.039662372
-3.3640536e-05 0.043131106 -0.102762386 0.048641317 -0.12667975 0.09728839 0.11091961 0.018981483
-0.06904826 0.110424854 0.17290184 0.040063214 0.023734694 0.07490487 -0.15039393 -0.1633876
-0.1566461 -0.0025547193 -0.037774235 -0.07306957 -0.063021086 -0.0126996925 -0.12029845 0.010103399
0.040724665 0.0860195 0.1277335 -0.020234803 -0.014268259 -0.031713374 -0.17041026 -0.02591375
-0.14802425 0.12582685 -0.04612592 0.14112122 0.086516134 -0.26299217 0.060542498 -0.029760858
-0.024350656 -0.19609566 -0.14444348 0.27912465 0.16534755 0.16433533 0.05441941 0.062772386
-0.1683305 -0.00025059382 -0.14475411 0.06522789 -0.17224236 0.010194437 0.2083539 0.16137771
-0.37557378 0.22825438 0.034508217 -0.029915163 -0.0413226 -0.03191906 0.0051852707 0.01748752
-0.019437522 0.08802913 -0.43608466 0.04735916 -0.2739117 -0.026960997 -0.1653324 -0.005938866
0.06857239 -0.06373875 -0.042243496 0.19581807 0.05314913 0.035302535 -0.016208079 0.22829124
0.15847489 0.00055418856 -0.033092752 -0.06513698 0.14347099 0.060271 -0.15648948 -0.013614924
0.22228763 -0.20199618 -0.29990962 0.11830004 0.19732553 0.042276073 0.14348881 -0.045023203
-0.1793385 0.064788416 0.027541569 -0.0060350164 0.02197196 0.14776564 -0.12416881 0.15534216
0.09779907 -0.05697034 0.0871422 0.27502444 -0.07965402 -0.1417929 0.070519656 -0.0053533018
0.17812654 -0.032748852 0.07592245 0.061247274 -0.08597769 -0.10398082 -0.08431831 -0.053930935
0.0043822536 0.08721944 -0.018101636 0.050660785 -0.044895463 0.0030797655 -0.052393142 -0.0056958594
-0.009411956 0.03974001 0.09721165 -0.024084406 -0.114938796 -0.06780722 -0.11328451 -0.11097201
0.08241468 -0.217416 -0.09184057 -0.0701793 0.23487008 0.0960829 0.25070184 0.04450296
0.063635744 -0.045302223 0.20613736 -0.10868437 -0.0059343744 0.14010185 -0.09063216 -0.0926947
0.094811395 -0.043266095 0.018972801 -0.039043147 0.13833687 -0.33933097 -0.001812474 0.09160374
-0.25391942 0.054050345 -0.09968823 -0.05867979 0.17490669 0.4467884 -0.22343883 -0.16249835

lstm.weight_hh_l0 f4 [256, 64]
00000000: 6c25 3f3b 0dbd d9bc c879 17be c12c 6c3d
00000010: f7e3 243e 1b9d 91bd 9c66 3a3e da81 43bd
00000020: eda7 0abd df99 98be 452a 33bc fd6b 673d
00000030: e6db 983c d4cb a1bd 53dc 5ebe 4db4 29bf
00000040: 524e f93d 14dd edbd 5629 0dbe 033f 94be
00000050: e81c 153e ee6c 233e 19e9 713d 87bd 463c
00000060: c713 923d 4692 f4bd 43ed 843d 5961 ad3d
00000070: bf32 64be 3ffb 1c3d 6285 113e d89f 3a3d
00000080: 3008 d9bd 3692 8b3d c721 023e 7247 583d
00000090: 73dd 0d3e 5453 fa3b d870 d33d ae93 3cbe
000000a0: 37f9 bdbd d56f 7bbd 3c38 1b3f 02b1 a43e
000000b0: 79a9 46be cf36 0b3e 4e04 ffbc 17a1 803d
000000c0: 75c7 f2bd 4a6d 0abd e5a2 273e f246 243e
000000d0: e8aa 243c 88d6 61bd f2b0 613e 0d8e 36be
000000e0: 121e cf3d db3d 98bd 53c5 9a3d 1e9d d33d
000000f0: 5c7f 73bd 96f5 c43d aeb9 b2bd 94d1 233e
00000100: 61e5 17bd ba26 5cbe 6647 053c 6843 dabc
00000110: 24d8 17be 2880 eabd 416e aebe 3d7b cb3d
00000120: 0f4e 9abd 7daa 01be d084 0fbd 33f5 b0bc
00000130: 9b42 50be 4c72 4c3b f11a 1ebe 7074 0cbe
00000140: ac4b 123e 5ec7 fcbd d7c4 3fbe 9984 79bd
00000150: ad50 edbd f6f4 193d d818 dd3b e3e6 373e
00000160: bfbf e83d 7b97 c8bc 1737 22bd 6e5a d3bd
00000170: 38fb aa3d 25da 51bc 42ab cabd 76bb 333d
00000180: 7aa7 38bc 4017 27bd d0b2 b9bd 7859 58be
00000190: 8da0 153e ac2c 793c 927a 703d 27d7 b43d
000001a0: c8dc 14bc 21a4 0dbe 0c0e 2b3e d823 5a3e
000001b0: a1d8 85be 0b29 203e 4918 95bd 5442 bdbd
000001c0: e979 1e3e 320f d4bd 0962 973c 0a62 b13c
000001d0: 738b 8bbc e881 533a 81a7 5d3d a149 f1bc
000001e0: a258 6a3e 5351 82bd 821b 9d3d a309 093d
000001f0: 7298 44bd acd2 82bd 4575 5bbc e7bb 7fbd
00000200: 83c5 9e3d 3f4b 0fbe 95e1 2bbe 7291 c2bd
00000210: 3ac7 373e e9e2 b33d 5b14 a73c 07fa c6bd
00000220: 3630 b73d a7d7 563e f91f 0bbe f01d 67bc
00000230: 91b1 233d 38d2 a4bd 8107 3f3d f01a 363e
00000240: 1396 f83d 287c 7abb aa97 50bd 0246 573d
00000250: 88f4 6e3e f7d8 f13d c22e 14bc d0a8 a5bd
00000260: b6ba ddbc 6aed 82bd 833b 49bd a2ba b63c
00000270: 3c33 93bd 71be d13c c200 38bd 7908 42bd
00000280: a2b4 9dbb dbfc 74be 7be7 06be 85f4 49bc
00000290: f227 d23d 9b4e 6abd 112c 08bc cd7a 0bbd
000002a0: 577d 743b 1067 04bc 0b2e dc3d 81db b3bd
000002b0: a00e a6bd 44a1 4e3c bbd3 c9bd 302b 28bc
000002c0: 97b4 46bd c3d8 87bd 05e6 253d 0534 0dbd
000002d0: 9017 4cbc e5f8 0d3e 6fd2 a53d a949 913c
000002e0: b9ec fcbc 82b6 d0bc 6fe8 103e f9af 1bbc
000002f0: 8aea 6bbc 8714 07bd e166 8abd a248 4abd
00000300: b55d ee3d 466c 293e 75b8 af3c a931 843d
00000310: c762 03be 9d1d 12be 02ec 97be 7d83 22bd
00000320: b712 54be fa21 39bd 34ea 0e3d fd76 c5bc
00000330: c842 24bd 3623 2ebe fa50 8bbd 1a74 bf3d
00000340: 00a3 65bd 24f2 c8be 88c1 063b 2bfb 173d
00000350: c28c 29bd 2c9b 5c3d 3460 8e3d b97b 203c
00000360: e8b1 0bbe 5d53 04be e096 fbbd 2c17 15be
00000370: 073c b6bb 8ace 2b3d aa10 c6bd 452d 20be
00000380: 9d8d d93d 0a56 67bc c436 51bd 39ca b6bd
00000390: 095f cc3d 2766 cabd 2668 01bd fdb2 ad3e
000003a0: ca1e 71bd 4a6b 93bd d812 de3c c6a9 b53d
000003b0: fd26 843b 69d5 583d 896b 4b3e 67e8 c63d
000003c0: 35ad 3abc efd7 3abe 18eb 523d 884e 8a3c
000003d0: 2cc7 843b d704 14bd 8dd7 053e 862a 4f3e
000003e0: 4ff3 3c3d 3be9 373d fad9 15bd e58f cbbe
000003f0: 558e 1abe feae 84be fa91 723e 1e0f 09bc
0.0029166592 -0.026579404 -0.1479255 0.05765987 0.16102587 -0.071100436 0.18203205 -0.047731258
-0.033851553 -0.29804894 -0.010935371 0.05649947 0.018659543 -0.07900205 -0.21763735 -0.6629074
0.121731415 -0.11614433 -0.137853 -0.28954324 0.14561808 0.15959522 0.05906019 0.012130148
0.071326785 -0.11941962 0.064905666 0.08465833 -0.22284983 0.038325544 0.14211038 0.045562595
-0.10597265 0.06814997 0.12708198 0.05280251 0.13854007 0.007639328 0.103242576 -0.1841571
-0.092760496 -0.06138595 0.6063268 0.32166296 -0.19400586 0.13595127 -0.031129982 0.062807254
-0.1185445 -0.033795632 0.16370733 0.16042688 0.010050513 -0.055136234 0.22040156 -0.17827626
0.10113157 -0.07433673 0.07557168 0.10332702 -0.05944763 0.09617154 -0.08726822 0.15997916
-0.037083987 -0.21499148 0.0081346985 -0.02664347 -0.14828545 -0.11450225 -0.34068492 0.09935615
-0.0753442 -0.12662692 -0.03503877 -0.021601295 -0.20337908 0.0031196056 -0.15439965 -0.13716292
0.14286679 -0.12342714 -0.18727432 -0.06091747 -0.11587653 0.03758713 0.0067473464 0.1795917
0.11364698 -0.024486294 -0.03960332 -0.103199825 0.083486974 -0.012808357 -0.09895946 0.04387995
-0.011270398 -0.040793657 -0.09067309 -0.2112788 0.14612027 0.0152084045 0.058710642 0.088300996
-0.0090858415 -0.13832141 0.16704577 0.21302736 -0.26141837 0.15640657 -0.07280023 -0.09241167
0.15476193 -0.10354461 0.018479364 0.021653194 -0.017034268 0.0008068369 0.054114822 -0.029454054
0.22885373 -0.063631676 0.07671262 0.033456456 -0.047996946 -0.06387839 -0.013394658 -0.062435057
0.07752516 -0.13993548 -0.16785271 -0.09500398 0.17947093 0.08783514 0.020395448 -0.09715658
0.089447424 0.20980702 -0.13586415 -0.014106259 0.039964262 -0.080479085 0.046638016 0.17783713
0.121379994 -0.0038220976 -0.050925888 0.052557 0.23335469 0.11808961 -0.009044351 -0.08088839
-0.02706657 -0.063929394 -0.04912902 0.02230579 -0.071875066 0.025603505 -0.044922598 -0.04737136
-0.004812793 -0.23924582 -0.1317424 -0.012326364 0.10261525 -0.05720387 -0.0083112875 -0.03405266
0.0037306154 -0.008081213 0.107509695 -0.087821014 -0.08108258 0.012611691 -0.098548375 -0.010264203
-0.048512068 -0.06633141 0.040502567 -0.034473438 -0.01245679 0.13864477 0.08096778 0.01773532
-0.030874597 -0.025477652 0.14151166 -0.009502404 -0.01439918 -0.03297856 -0.06757904 -0.049385674
0.11638967 0.1654521 0.02145026 0.064547844 -0.1283065 -0.14269109 -0.29672247 -0.03967618
-0.20710264 -0.04519842 0.034891322 -0.02410459 -0.04010275 -0.1700562 -0.068025544 0.093483165
-0.056063652 -0.3924724 0.002056213 0.037104767 -0.041394003 0.05385892 0.06951943 0.009795123
-0.13642085 -0.12922426 -0.122846365 -0.1455962 -0.005561355 0.041945018 -0.09671147 -0.15642269
0.10622714 -0.014119634 -0.05107762 -0.0892529 0.09979064 -0.09882765 -0.031593464 0.3392562
-0.058867253 -0.07198198 0.027108595 0.08870272 0.004032968 0.0529379 0.1986524 0.09712296
-0.011393835 -0.18246435 0.051493734 0.01688315 0.0040520635 -0.036137428 0.13070507 0.20231065
0.046130475 0.04490016 -0.03658483 -0.3975822 -0.15093358 -0.25914758 0.23688498 -0.008365421

lstm.bias_ih_l0 f4 [256]
00000000: 0422 833d 4eb9 4e3e e5da 57bd e54f 793e
00000010: e4fc 00bc 5a6f a83d d12e 4fbe 0d1a d4bd
00000020: ebd5 6abd e17f 6e3c 6921 6abd 45f3 93bd
00000030: e726 afbc 74d1 2cbc 6934 113c 08c4 2fbe
00000040: 4692 80bd d3df bf3d 0f83 f13c 27bc 2a3e
00000050: 4c5c 54bd 6b82 7abd f17e 9bbd 9a96 49be
00000060: 63ad d23c 8b55 f03a 8956 69bd c317 243d
00000070: 7b86 e73d b9bd 5fbc 79eb 01bc eeb3 523e
00000080: da5a cabd 045b 12be 55bc 323d 7393 babd
00000090: d201 7abd 433f ec3b fcf0 c3bd 1ea6 483d
000000a0: 62eb a23d 31ca f8bd 454b ea3c a61b d63d
000000b0: da8b 113e b107 d1bc 3736 433d c757 243e
000000c0: 504f dd3c e913 313d 4107 3bbe 31a8 373e
000000d0: 9be1 b4bd 1e40 943d 6c8b b8bd 13c2 883d
000000e0: 0d12 7dbe b39f 753e f461 fa3d e3e3 0a3b
000000f0: f739 bebd 8f9e 4a3e f6a9 cbbd 98f5 0bbe
00000100: e383 1d3e a0f1 8f3e e4a5 083d 47ed 793e
00000110: 4170 803e 9f7b 6f3d a183 da3c 1012 683d
00000120: 3333 283e 9489 e93d 5c7d 083e 1eb0 703d
00000130: d8ed b53d 890a a53e a721 0a3c 094a f43d
00000140: fd9c 2b3e 18e2 2a3e 8ad3 48bd 40f4 2e3e
00000150: 66a1 1b3e 6d7b 17bb 297f e43d 5ec1 8e3d
00000160: 13ef 0f3e b60c a93d 60e7 8c3d 4b1d 513e
00000170: ddea f83d 606e 783d 641c 853d 995c 3d3d
00000180: 3d5f 5ebd 0b70 803e d3db 0b3e 84b2 e63d
00000190: 700a 4d3e 7709 c83d e8ca 913c fa16 453e
000001a0: 55d5 d33e 8d2f 693e 2a37 6bba d75d 13bd
000001b0: 0c33 1c3e 8624 d83d 88d9 e03d cd02 313e
000001c0: 25ae cf3d c669 5f3e 8e38 da3d 3f20 963d
000001d0: e19c dc3d b83f 873e 3153 f13d 944a a83d
000001e0: 7c9b 8d3d 7eec f73d 5063 423e a9e3 993d
000001f0: 5124 583e fc73 593e b233 803e 9921 4a3d
00000200: 000a a8bd 0d88 03bc c9e4 f1bd 4b72 033c
00000210: eca9 283e 1f96 3fbe 0fe1 123e 675e acbc
00000220: d430 07be 4da3 3e3d 28d1 943e 1078 d3bd
00000230: 5c68 15bd c446 983d b86a f93c 709b c93d
00000240: 3309 5e3e 253a a13c 9d92 413d dfaa 49be
00000250: 1b2d f03d b510 0fbe 1b06 7f3e df8f 833e
00000260: 9748 603d dea0 b13c 431c d5bc eea4 b43d
00000270: 27d3 633d 6cb0 5a3d 8f99 843e ef77 07be
00000280: dcdd 43bd 5553 6d3d ecc1 983e 216f 573e
00000290: d54c 31bb 503f 403d 3282 493d f3d8 3e3e
000002a0: 41d3 803d 33ec ab3d 102b 333e fa3f dfbd
000002b0: e12d a3bc 3fe4 14bc 6bac ed3d c9a9 f6bd
000002c0: 845c 733c b9bb 86bd 9448 2cbe 5ed8 93be
000002d0: 4a66 68bd d537 fdbd 62a2 c53d f4fa d13b
000002e0: 68ff 013c bd6f b7bb e8a4 a53d 4a8c 743e
000002f0: 9c50 b03d 97e4 6abe f42e b3bd 2b13 cebd
00000300: 7769 b53d 5454 c23e 1115 913e a0bc be3e
00000310: dccf b13e 1557 933e 0fd3 583e 5a31 c13e
00000320: 081c 883e fd4a b93d 3eb4 013f 32f2 18be
00000330: 0a2c 49bd 246d 983e 92a3 dc3e 3d36 6dbd
00000340: b8df 653b 152e 903d 03bb a23e 5e94 e73d
00000350: 6971 eb3d 7ad9 85bd a070 773d 6105 2b3e
00000360: 0cea 6f3e 1ee9 a43d 0a82 c53d 755d 2d3e
00000370: 88a3 853d 41a5 b23e 4e50 193d b300 813e
00000380: d4b0 b7bd 2faa f23d 1b6f afbd 4aaa 8e3e
00000390: 18e8 bf3e 15f0 b53e def9 233e 1796 be3e
000003a0: cfff 433e 71ba cb3d 8df2 603e b194 25bd
000003b0: b0ca 703e 4749 173e 5421 a73e 4c11 ab3d
000003c0: 75e1 853e d714 453e c04a 35bd 3c90 a73e
000003d0: b462 6b3e 4f12 713e 0b2f 49bd 53e5 d2bd
000003e0: ae55 de3d 939f b83e fb67 ed3e aa34 91bd
000003f0: bd9f f83d 3b4d b53e 3784 a13e 2f48 95bd
0.06402972 0.20187876 -0.05269899 0.24346884 -0.007872794 0.082243636 -0.20232703 -0.10356531
-0.057332914 0.014556856 -0.05716077 -0.07224134 -0.021380855 -0.010547984 0.008862593 -0.17164624
-0.062778994 0.09368863 0.029481439 0.16673337 -0.051845834 -0.061159533 -0.075925715 -0.19686356
0.025717443 0.0018336041 -0.056967292 0.040061723 0.11304947 -0.013656073 -0.007929676 0.2057645
-0.0988061 -0.14292532 0.04363664 -0.09110155 -0.061036892 0.00720969 -0.095674485 0.048986547
0.07955052 -0.1214794 0.028600344 0.10454492 0.14213505 -0.025516363 0.047659125 0.1604911
0.027015358 0.04323188 -0.18264486 0.17935254 -0.08832093 0.07238792 -0.090109676 0.06677642
-0.24713917 0.23986702 0.12225714 0.002119296 -0.092884 0.19787048 -0.09944527 -0.13667905
0.15382342 0.28114033 0.03336133 0.2440692 0.25085643 0.058467504 0.026674094 0.05665785
0.16425781 0.11403194 0.13329071 0.05876171 0.08883256 0.322346 0.008430875 0.119281836
0.16759105 0.1668781 -0.049029864 0.17085361 0.15198287 -0.002311434 0.111570664 0.069704756
0.14056043 0.082543775 0.06880069 0.2042133 0.121541716 0.060652137 0.06499556 0.046230886
-0.054290045 0.25085482 0.13658075 0.11264518 0.20023513 0.0976743 0.017796949 0.19247046
0.41373697 0.22772045 -0.00089727587 -0.035978165 0.15253848 0.10553841 0.10978991 0.17286225
0.10140637 0.21817693 0.10655318 0.07330369 0.1077211 0.264158 0.117834456 0.0821735
0.06914422 0.12105654 0.18983197 0.07514126 0.21107604 0.21235651 0.2503944 0.049348447
-0.08205032 -0.0080280425 -0.118112154 0.008022855 0.1647107 -0.1870961 0.14343666 -0.021041108
-0.1320222 0.046542455 0.29065824 -0.103256345 -0.036476478 0.074353725 0.030446395 0.098441005
0.21683197 0.019681046 0.047258962 -0.19694088 0.11727353 -0.13971217 0.24904673 0.25695702
0.054756727 0.021683153 -0.026014453 0.0882052 0.055621292 0.053390905 0.25898406 -0.13229345
-0.047819003 0.0579408 0.2983545 0.21038486 -0.0027053852 0.04693538 0.04919643 0.18637447
0.062902935 0.08394661 0.17496896 -0.109008744 -0.019919338 -0.009087621 0.11605152 -0.12044103
0.0148536 -0.06578774 -0.16824561 -0.28876013 -0.056738175 -0.12364165 0.09650113 0.00640809
0.007934429 -0.005598037 0.08088094 0.23881641 0.08609125 -0.22938763 -0.0874919 -0.1006225
0.088580064 0.37954962 0.28336385 0.37253284 0.34728897 0.28777376 0.21174262 0.37732965
0.26583886 0.09047506 0.5066565 -0.1493614 -0.049114265 0.29770768 0.43093544 -0.057913054
0.0035075974 0.070400394 0.31783304 0.11307596 0.11496241 -0.06535621 0.060410142 0.1670127
0.23429126 0.08052276 0.096439436 0.16930182 0.06525332 0.34891704 0.0374301 0.25195846
-0.08969274 0.11848866 -0.085661136 0.27864295 0.3748176 0.3553473 0.16013286 0.37223884
0.19140552 0.0994767 0.21967526 -0.040425006 0.23514819 0.14774047 0.32642615 0.083529085
0.26148573 0.19246231 -0.04426074 0.3272723 0.22986871 0.2354214 -0.04911713 -0.102976464
0.10856186 0.36059245 0.46368393 -0.07090123 0.12139843 0.35410485 0.31546184 -0.072891586

lstm.bias_hh_l0 f4 [256]
00000000: 62a2 cb3c 408d c43d fb70 edbd 74fd c03d
00000010: 87d2 e9bd 8626 103e 4c6f fdbc 28a9 1bbd
00000020: e699 22bd 38a9 f5bd 7cbe 2d3c 3908 c9bc
00000030: 86ae 9bbd 0d79 eb3d c349 ca3d 94d0 ab3b
00000040: 24b6 04be 968c 993d f0d5 1a3d 9423 ea3d
00000050: dd38 b2bd 98e5 46be c798 37bb 6a27 e7bd
00000060: 71c9 ecbd 2961 32bb b167 4fbd e093 9a39
00000070: 44c5 8f3d b10a 973c 5f46 db3b 04ca b73d
00000080: 973b 26bd 6752 25be 03d7 c6bc 29f2 073d
00000090: 2338 cebc d192 1f3c 0aee b53c ee10 f0bc
000000a0: ea12 f9bc 0f67 66bd 6187 f43d 60a3 a93d
000000b0: 270b 813e 679d 1bbd 7ba0 92bd ade0 1ebd
000000c0: 6e9a 9cbb 093c c93d 1b7f 2fbd 4e6a a83c
000000d0: d762 68be 00c9 b9bd 09ac 82bd 2a05 f1bd
000000e0: d4a5 72be 8aa1 a23c a0fa cd3d 12a7 0e3b
000000f0: 0910 23be 90d1 39b9 6e92 113d cf0c 8fbd
00000100: 6b13 223e bb47 ab3e 67f4 553d 6f79 9e3e
00000110: 5505 093d c5a8 553e c5ad d53d 10f0 ac3c
00000120: 0a0d 493e c1ca 3dbd d6c2 7d3e 4a5d 933e
00000130: 2280 dc3d 23e5 9e3e 0f3b f33b da1b b53d
00000140: d01b 0d3e 6bb4 903e 0a61 6f3d 52cf 1d3d
00000150: 8377 883d 9fc7 28bc 3931 7f3e 25dc 163e
00000160: f512 1d3d 5078 13bd bdc6 303e 88ad 493e
00000170: 7927 383d e55c 573e c13c 113e b596 543e
00000180: 2d07 d6bc 5539 2f3d 0de2 c03d c0d6 f03d
00000190: ebe4 573e 8e4f a9bb e8c8 7e3e e67b 803e
000001a0: 3060 463e 839b 013e 6fce 2f3d 72be 393e
000001b0: ddb8 82bd 5b52 2e3e efc7 903e f143 35bd
000001c0: befc 4b3e 00b3 6f3e 28e1 503e b59d 733e
000001d0: 83a4 c33d 7625 9c3e 8805 103e 915a af3d
000001e0: da81 103e a529 223e 9584 533e f240 303e
000001f0: ba4a 783d dd64 093e 1a34 733e 04fd e63d
00000200: c750 41be 1806 523e 50db 0ebd c5fd 393e
00000210: c58e 81bd 6ab8 21be 883e 2f3e 347b 953c
00000220: 08c4 1cbe 4013 993d 05ba e43d 344b 20be
00000230: b29d b13c c1a4 8cbc fd8d fbbd 2b78 8d3d
00000240: ecf4 1a3e 57f7 07be 0871 2ebe d554 16be
00000250: d52a b83d d17c acbc 01cb 543e 733d 993d
00000260: bebf 243e 61f7 e93d a48a 00be 15e0 063e
00000270: 1df3 c83c e986 11bd 8170 543d 605f 343d
00000280: 1f0b e43c e121 363e 7bba d43d 7f58 5e3e
00000290: 3c8e ef3d 7196 1e3c 7363 1e3e 5d3d b83d
000002a0: e117 84bd 8da1 e8bc 256c a63c c486 77bd
000002b0: f651 10be b4f1 ed3d 7997 b93d eef8 4bbe
000002c0: acf0 4c3d 474e 4abd 1f76 8b3c b8e3 9dbe
000002d0: 6db3 06bc 3944 abbd d867 083e e834 fabc
000002e0: 05ae debd 4817 80bb 51fa 003e 3bcd ec3d
000002f0: f090 6f3e 37f8 9cbd a929 6ebd a145 e6bc
00000300: 0d0c 8f3d 9d7c cb3e d878 2c3e 354c f63e
00000310: 272d dd3e cfc0 153e 448d 523e db68 c83e
00000320: f0dc e43e 06bc 4f39 7430 aa3e afab 593d
00000330: b1b4 cc3d 86ee 953e be0c a43e f9bb 92bc
00000340: 821c f13d 9ea5 13be a53d 833e a47a 123e
00000350: 76b0 363e 45c6 bc3d f918 3f3e 34b4 ab3e
00000360: 0a89 0f3e 71ef 883c 15de 253e 63ff 503e
00000370: b108 06bc c8e7 d33e 5033 6d3e 05e7 b83e
00000380: 4708 edbd 4e04 393e 5533 74bd 2191 d23e
00000390: a085 823e 98a3 633e 15b9 113e d2d7 483e
000003a0: d038 213e 18f4 9d3c 718b 6a3e 792d d0bd
000003b0: 109b 4f3d 1f3c 003e 1598 8c3e ad84 2b3e
000003c0: 5a54 8c3e 0f5a bd3e b030 c23d 5ea7 923e
000003d0: 2b6a c63e e0eb ad3e f416 473c 74a9 13be
000003e0: 3674 693e 8e9c ab3e 1cde 7d3e e645 b73d
000003f0: f54e 313c 6de7 fe3e cd1d a83e 095f 383d
0.024857704 0.09597254 -0.11593815 0.09423342 -0.11417108 0.14077196 -0.03093686 -0.038003117
-0.03969755 -0.119951665 0.010604497 -0.024540054 -0.07601647 0.11497698 0.0987735 0.0052433703
-0.12960106 0.07497518 0.037801683 0.11432567 -0.08702252 -0.1942352 -0.0028014646 -0.112868145
-0.115618594 -0.0027218556 -0.050635997 0.00029483344 0.07020047 0.018437715 0.0066917385 0.08974078
-0.040584173 -0.16144715 -0.024272447 0.033189926 -0.025173252 0.009739594 0.022208232 -0.029304948
-0.030404527 -0.056250628 0.11939884 0.082831144 0.2520382 -0.037991907 -0.071595155 -0.038788486
-0.0047791516 0.09825904 -0.042845827 0.020558503 -0.22693954 -0.09071541 -0.06380469 -0.11768563
-0.23696071 0.019852418 0.100575686 0.0021767062 -0.15924086 -0.00017721043 0.035540037 -0.06984865
0.1582772 0.33453164 0.052235033 0.3095202 0.03345235 0.20865162 0.104335345 0.021110564
0.1963388 -0.04633594 0.24781355 0.2878211 0.10766627 0.31034192 0.007422812 0.08843203
0.13780141 0.28262648 0.058442153 0.038527794 0.0666342 -0.0103015 0.2492112 0.14732416
0.038348157 -0.03600341 0.17263313 0.19695103 0.04495952 0.2103153 0.14183332 0.20760615
-0.026126469 0.042779285 0.09418116 0.1175971 0.21083419 -0.0051669544 0.24881327 0.25094527
0.1937263 0.1265698 0.04292148 0.18139055 -0.06382916 0.17023604 0.28277537 -0.044254247
0.19920632 0.23408127 0.2039839 0.23790629 0.095528625 0.3049733 0.1406461 0.08562196
0.14112034 0.15836199 0.20656045 0.17212275 0.06061814 0.13417383 0.23750344 0.11278728
-0.1887847 0.20510137 -0.03487712 0.18163212 -0.06326059 -0.15793005 0.17113698 0.018247224
-0.15309155 0.07474375 0.11168293 -0.15653688 0.02168164 -0.017168405 -0.122829415 0.06907686
0.15132493 -0.13277946 -0.17035306 -0.14680798 0.089925446 -0.02105561 0.20780565 0.07482424
0.16088769 0.11424137 -0.12552887 0.13171418 0.024529988 -0.03552905 0.051865105 0.04403627
0.027837334 0.17786361 0.10387131 0.21713446 0.11697051 0.009679423 0.15467624 0.08996079
-0.06449867 -0.028397346 0.02031524 -0.060431257 -0.14093766 0.11618367 0.09062094 -0.19919178
0.05003421 -0.049391057 0.017024098 -0.30837798 -0.008221489 -0.08362622 0.13320863 -0.030542806
-0.10873035 -0.0039090253 0.12595488 0.11562582 0.23395133 -0.07664531 -0.0581452 -0.028109374
0.069847204 0.3974351 0.16842973 0.48105016 0.4319851 0.14624332 0.20561701 0.39142498
0.44699812 0.00019811103 0.33240092 0.053142246 0.09995402 0.2928354 0.32040972 -0.017911898
0.117730156 -0.14418647 0.2563297 0.14304596 0.17840752 0.092175044 0.1866187 0.33535922
0.1401712 0.016715737 0.16197999 0.20409922 -0.008180783 0.41387773 0.23164105 0.36113754
-0.115738444 0.18068048 -0.059619267 0.4112635 0.25492573 0.22230375 0.1423076 0.19613579
0.15744328 0.019281432 0.22904755 -0.10164923 0.05068499 0.12522934 0.2745978 0.1674983
0.27408105 0.36982772 0.09481943 0.28643316 0.38752875 0.3396902 0.012151469 -0.1442011
0.22798237 0.3351788 0.24791759 0.08948879 0.0108220475 0.4978594 0.32835236 0.045012508

fc.weight f4 [1, 64]
00000000: 02d4 61bf cc3f 5f3f c874 69bf 2672 473f
00000010: c7ec 533f 0288 54bf 3170 603f 195a 483f
00000020: a9d9 5dbf 9c35 643f 8ee3 533f 84c1 4dbf
00000030: 95d7 5c3f 15d8 75bf 91a6 60bf 3cf1 5f3f
00000040: 45d4 643f 7e87 47bf 683e 563f e1c6 6abf
00000050: afb7 603f 3c73 56bf f078 623f c7af 523f
00000060: 3d6c 473f fe27 653f 732c 59bf 894e 613f
00000070: 3691 3fbf 219d 6f3f 1a54 623f 2b3a 5cbf
00000080: c73e 573f 7b3b 5b3f 92b8 523f 64cf 583f
00000090: 7de7 6d3f 7621 603f 968e 633f a881 483f
000000a0: 4c2f 673f ef2f 46bf 0039 6a3f 9484 5fbf
000000b0: 4a0f 4fbf 146e 613f ba72 5f3f 54be 55bf
000000c0: 22d9 7ebf bc47 51bf 9f74 49bf 4983 66bf
000000d0: 8d19 58bf cb78 6ebf 0988 5f3f 3efd 4a3f
000000e0: c19c 86bf 4085 64bf acdd 6e3f 36bf 543f
000000f0: f6ef 573f ff14 5dbf 85c1 4f3f a02a 4cbf
-0.88214123 0.8720672 -0.9119382 0.7790855 0.8278317 -0.8302003 0.8767119 0.7826248
-0.8666025 0.891443 0.82769096 -0.80373406 0.8626645 -0.9603284 -0.8775416 0.8747747
0.893864 -0.7794112 0.83688974 -0.91709715 0.8778028 -0.83769584 0.88465786 0.82299465
0.77899534 0.8951415 -0.8483345 0.8801046 -0.7483095 0.93599135 0.8840958 -0.8602626
0.84080166 0.85637635 0.8231288 0.8469145 0.9293135 0.8755106 0.88889444 0.7832284
0.90306544 -0.7741689 0.91493225 -0.87311673 -0.80882704 0.8805859 0.87284434 -0.8349354
-0.9955007 -0.8175008 -0.78693575 -0.90044075 -0.8441399 -0.93153065 0.8731695 0.79292667
-1.0516587 -0.89265823 0.93306994 0.83104265 0.84350526 -0.8636016 0.8115466 -0.7975254

exp_avg f4 [11, 128]
00000000: 04ae 99ba b99e 073b 5684 303a 3434 023a
00000010: a9ba 62ba 2ad2 99ba 4b8d 003b 31dc 04bb
00000020: 7ea9 ca3a 1677 ec38 67e2 443a a5c6 4e39
00000030: 624f 153a cd9a 6bb9 7711 0cba 3f0a e13a
00000040: caad 713a 6618 beb8 ec30 01ba 5daf 013a
00000050: 946c 8cb8 e753 cf3a 1ab3 893a 9da6 98ba
00000060: 7292 cfb9 233a 22ba 131c 2f3b 0223 023b
00000070: 17f4 4f3a b1be dcb9 c963 913a 3d9e 0e39
00000080: 3d9e 843a 486d 893a 7c6f b0ba b870 37b8
00000090: 9a5a 5db9 9df2 3e39 43bf c43a 7e27 b8ba
000000a0: 3c78 d239 abe6 ad39 0129 9b3a 6795 4eb9
000000b0: a22a 57b7 57f9 8aba 3c5f 5f3b 44c1 21ba
000000c0: 8166 f8ba 8f4a 1bba 53e9 de38 383b 113b
000000d0: c7e6 183b db09 8839 919e b3ba 23b3 29ba
000000e0: c9e2 f1b9 4c0b d2b9 2f0e 523a 4117 cd39
000000f0: 183f 093b 21b2 fc39 6e70 833a b436 05ba
00000100: 3393 15ba 2297 6a39 5ae9 4eb8 d9a3 a2b9
00000110: fc6e e2b9 16f4 243a 2b86 9439 21a9 4bba
00000120: 4601 68b9 d19c 9ab9 3d68 94ba 7087 84ba
00000130: 8a75 f93a da75 e0b7 c45b 5eb8 bd84 e3b8
00000140: 6ce7 923a 2beb 463b 59be 333a 7557 9839
00000150: 1c3f 143a 2bc1 31ba 582e 003a 5d5d 47ba
00000160: 6960 c538 ac6a 4fba e17c 3bba af21 89ba
00000170: f3c0 003a 355d e839 db12 9439 49fe 673a
00000180: 1e8f c2ba d6f1 24b9 e7d6 ca39 e725 6539
00000190: b739 aeb9 1d02 61ba ba40 d539 975a ed3a
000001a0: 2e77 3d3a 112d 1eba feaf 04bb 1be4 ca3a
000001b0: 3fa6 81b8 1a11 fe38 d736 913a aac8 8539
000001c0: 2158 7fba be6b 5039 6c7f 4b3a 59e4 3c39
000001d0: 4e04 373a e1f2 6d3a 718c 073b a506 cc39
000001e0: fbc1 053a 60d9 1ebb 197a 823a f103 b2b8
000001f0: f479 c6b9 5b1e afb9 ac13 6eba ff69 6cba
00000200: 7fc4 59ba 8560 b936 30a6 9db9 2f59 1a3a
00000210: b161 4d3a a2f0 16b9 598b acb9 1f3b d039
00000220: 33cb 6e38 db85 a43a 516f af39 11c1 e739
00000230: b9f6 133a cfd9 b5b8 17a7 103a c54c 0d39
00000240: b173 a43a 2ac4 3bba 5bd8 e7b9 0363 82ba
00000250: 850e 7739 2b7f 4a3a d30a d2b9 2978 123a
00000260: 1bae b43a a64f 9db9 005d 7f39 74ff 1b39
00000270: 2407 063a a5e9 733a 9500 3fba d5a1 923a
00000280: a8e0 483a e535 073b 3295 24b9 9b98 043a
00000290: 5975 623a 8767 4c3a 1966 4b39 e9bf d7b9
000002a0: fb98 b5b9 ede3 8238 9417 48ba d0b9 0cba
000002b0: 2c37 6dba 20c2 9c38 62b2 a3b9 65ff 3c3a
000002c0: 9ad2 d8b9 2db9 2a3a dc4b bf3a 262c 2e39
000002d0: 4c5c 9aba df22 423a b4cb 8238 a5b8 06ba
000002e0: 320e 203a 8f6c 21ba 7f9d 8b37 d461 cd39
000002f0: 2c67 c139 c64a 4bb9 7c75 f739 e00b 2c3a
00000300: 5b36 8d3a 6684 99ba f8ed acb8 ea09 a8ba
00000310: fa70 b0ba f04c 6538 b226 7239 19de dfba
00000320: 968d 153a f2ed 68ba 32e3 a4b6 e0c8 6235
00000330: 28c7 e5b8 0c32 a238 69b4 8c3a b05d f139
00000340: b965 54ba 58db 24ba 058f a439 fa4f 70b9
00000350: f390 24ba c8b8 1eba 808f 6bb9 41a6 39ba
00000360: 6fd2 f6b9 e23b 7c3a 77fa 3ab9 d2b4 73b9
00000370: 45da d93a 2d94 2539 6b3b bdba 5964 a23a
00000380: 0fd6 1d3a 2619 a83a 7b93 873a 254b 6bb9
00000390: 5610 67ba 8b29 34ba 8c47 a3b9 c0bc 0eba
000003a0: 9995 86b9 1933 d9b9 2ff0 0a39 fdb6 273a
000003b0: 7edb 69b9 acc7 b139 e91c c33a 3ead 9e39
000003c0: 0ab7 bcb7 f2aa 6a3a 4172 9a39 0ba8 1d3a
000003d0: f9c9 c6b8 50a6 5939 24e6 a7b9 ea95 d4b8
000003e0: f74a 94ba f34d d4b9 8b08 27ba fb06 8639
000003f0: d70d 003a 3eeb e3ba 04ba 183a 3562 b3b8
-0.0011724834 0.0020693971 0.0006733587 0.00049668853 -0.00086490304 -0.0011735607 0.0019615467 -0.0020272846
0.001546189 0.000112755384 0.0007510543 0.00019719692 0.0005695728 -0.00022469014 -0.00053431786 0.0017169191
0.0009219317 -9.0644506e-05 -0.00049282494 0.00049470906 -6.6959445e-05 0.0015817852 0.0010505647 -0.0011646334
-0.00039591227 -0.00061884726 0.0026719614 0.0019857292 0.00079327956 -0.00042103746 0.001109236 0.00013601124
0.001011796 0.0010484839 -0.0013460959 -4.3735577e-05 -0.00021109954 0.00018210193 0.0015010614 -0.0014049856
0.00040143903 0.00033168992 0.0011837782 -0.00019701348 -1.2824925e-05 -0.0010602874 0.0034083864 -0.00061704614
-0.0018951447 -0.0005923891 0.00010629245 0.0022160541 0.0023330913 0.00025947284 -0.0013703873 -0.0006473532
-0.0004613607 -0.00040062738 0.0008012978 0.00039117972 0.0020942148 0.00048197902 0.0010028013 -0.0005081699
-0.00057058333 0.0002237228 -4.9331553e-05 -0.00031021124 -0.0004318877 0.0006292475 0.00028328723 -0.00077690376
-0.00022125719 -0.00029490006 -0.0011322569 -0.0010111164 0.0019032222 -2.675776e-05 -5.3014388e-05 -0.00010848928
0.0011207885 0.0030352573 0.0006856672 0.0002905686 0.0005655156 -0.00067807984 0.0004889718 -0.000760516
9.41165e-05 -0.00079123187 -0.00071520923 -0.0010462309 0.0004911564 0.00044319933 0.00028242808 0.0008849842
-0.0014843678 -0.0001573035 0.00038688557 0.00021853262 -0.00033230867 -0.0008583384 0.0004067475 0.0018108663
0.0007227537 -0.0006033937 -0.00202465 0.0015479358 -6.182165e-05 0.00012114849 0.0011078966 0.00025517243
-0.000974061 0.00019876563 0.0007762823 0.00018014143 0.00069815374 0.00090770243 0.0020683075 0.00038914863
0.00051024527 -0.0024238452 0.0009954601 -8.4884356e-05 -0.00037856365 -0.00033401218 -0.0009081911 -0.000901848
-0.0008307173 5.524666e-06 -0.00030069193 0.0005887923 0.00078346865 -0.00014394757 -0.0003291022 0.000397169
5.6932866e-05 0.0012552099 0.00033461538 0.000442036 0.00056443695 -8.6713226e-05 0.00055180624 0.00013475407
0.0012546686 -0.00071627146 -0.0004422095 -0.0009947721 0.00023561165 0.0007724638 -0.00040062386 0.0005587363
0.0013784798 -0.00030004716 0.0002435334 0.00014877116 0.00051127584 0.000930453 -0.00072861585 0.0011187146
0.0007662871 0.002063149 -0.00015695838 0.00050581404 0.0008638702 0.0007797409 0.00019397623 -0.0004115098
-0.0003463699 6.2413375e-05 -0.0007632908 -0.00053682644 -0.0009049054 7.474818e-05 -0.00031222688 0.00072096876
-0.0004135564 0.00065125787 0.0014594751 0.0001661038 -0.0011776774 0.0007405709 6.236826e-05 -0.00051392085
0.0006105631 -0.0006157839 1.6643431e-05 0.00039173535 0.00036888698 -0.00019387444 0.00047199044 0.0006563049
0.0010773645 -0.0011712431 -8.245924e-05 -0.0012820337 -0.0013461404 5.466951e-05 0.00023093334 -0.001707974
0.0005704997 -0.0008885554 -4.91403e-06 8.448387e-07 -0.00010956667 7.734084e-05 0.0010734919 0.00046036905
-0.0008102316 -0.0006288788 0.00031387075 -0.00022917977 -0.00062777026 -0.0006054756 -0.00022464804 -0.00070819637
-0.00047077562 0.00096219603 -0.00017831648 -0.00023241647 0.0016620836 0.00015790826 -0.0014437264 0.0012389525
0.0006020972 0.0012824878 0.0010343635 -0.0002243934 -0.0008814385 -0.00068726455 -0.0003114309 -0.0005444996
-0.0002566993 -0.00041427536 0.00013250181 0.0006397812 -0.00022302379 0.00033908838 0.0014885935 0.00030265184
-2.249658e-05 0.00089518644 0.00029458295 0.0006014115 -9.478996e-05 0.00020756689 -0.0003202419 -0.000101368714
-0.0011313845 -0.00040493868 -0.00063718174 0.00025563673 0.0004884875 -0.0017388833 0.00058260583 -8.5536776e-05

exp_avg_sq f4 [11, 128]
00000000: 4122 b338 80c4 e939 0b56 c038 96fd 3436
00000010: 5ab9 b838 9f98 4139 a75c 8339 5bac 9039
00000020: fea7 8639 86ef 4537 f8fb 3f38 5a27 0137
00000030: 9c31 3a37 0765 0e37 d31f 6437 3170 b438
00000040: 740a 1a39 f69e 4437 4cba 1237 d44d 5838
00000050: 285f 7636 c491 d639 1ccb aa37 38ba 2238
00000060: bd80 8837 5153 6538 4f67 683a 8d67 1839
00000070: 0f33 2939 be2d 9f37 68d1 8238 0ceb 8737
00000080: 19d0 a937 f6fd 2339 f048 0d38 6b11 3337
00000090: 700d 2437 4951 bb36 19af 2839 f598 6e39
000000a0: 3304 8736 79e4 4237 33f8 fc38 50e0 8c38
000000b0: 05f0 8537 5bc2 2b38 f7da 5d3a b053 9838
000000c0: ea94 8539 de3c 2338 257d 5437 6c72 a139
000000d0: 9200 a939 2d44 a437 6a65 a039 97c3 5039
000000e0: 79db d137 f8bb 9138 ba8b 9938 bbee 0e37
000000f0: 20db ef39 fe5e 8337 3b8f b937 d655 7538
00000100: 20f3 0c38 31b5 b436 9582 8e38 81ae c938
00000110: 47f8 1937 0763 2737 aa42 6737 a294 2c39
00000120: b1dc 3738 6b0d 9937 b53b 5239 052c e238
00000130: 2215 8539 597d b237 2b88 5b37 ba7a ee36
00000140: d930 0239 6b85 cc39 f3a6 d638 5952 f237
00000150: 1509 3e38 a908 0637 b579 1138 1829 1238
00000160: ff7a 4537 b6e7 2038 0ab6 b238 4921 8138
00000170: 54be 8b37 f6b4 bf37 cd3c 2838 3684 d237
00000180: 927d e439 9180 6637 bb78 0a38 b569 cd37
00000190: 6040 9337 d545 2038 ded8 c736 83bf fe38
000001a0: 95a1 8d38 2053 1937 fec4 253a 7ec5 193a
000001b0: 8563 8437 7a54 1f38 970e e638 d7da 8437
000001c0: 8f46 9438 477b 9236 7113 b938 28c6 6737
000001d0: 13c3 9738 be0e 2738 de06 3239 1f04 4237
000001e0: 93a6 6738 d29f 9f39 adbb 3a39 e0d8 0d38
000001f0: 9ef4 d138 17e9 3738 8394 3437 1e6b 6838
00000200: 8618 7438 6d04 0838 aae1 0c36 9ee2 ca36
00000210: c07d 3037 67cf 1337 304d bd36 cf0f c336
00000220: a126 8637 fbf7 3038 d40e 0138 62d1 bf37
00000230: 738c 8136 c996 2436 e824 4036 30fd 8b37
00000240: 7966 0939 1286 0138 f4af 2237 808c a837
00000250: ef5b c936 7c55 2038 3d63 bf36 de2b 3337
00000260: 72ab 5b38 ddb1 9e37 3e0e 3338 641a 2837
00000270: 9791 2d38 deff 1937 425d 8437 f8e2 6838
00000280: 9471 3238 dd78 1e39 ec38 cc36 56c6 7b36
00000290: 0d2b 8436 b9a9 0537 667a 1537 3d65 e737
000002a0: 3f07 c437 2d97 9a36 286a 4236 65fa d836
000002b0: 094a 5e38 e519 c336 912e 2638 9c89 2337
000002c0: 7f16 3538 af4b 2337 c324 a738 e094 0237
000002d0: 54a4 b237 bca2 f137 ea92 8837 fb73 9d37
000002e0: 8eda c537 b17a d037 8568 9236 e708 3037
000002f0: d446 b037 35ee 2337 fbe9 0c38 7c29 ac36
00000300: 27ef 8637 e171 9c37 e181 6637 837a 2c38
00000310: 9a40 1038 3f01 0337 48cc bf36 0e48 e338
00000320: d295 b636 d5eb 0738 4ae1 0737 3b9f e736
00000330: 41bf 5d36 d9d7 fc35 eb5e 1a38 d407 ab36
00000340: c4a5 0038 f835 4d37 aa9f a937 c26e 2f37
00000350: 1a2d f436 149f 6837 9a53 3836 04ea 0c37
00000360: dc92 0237 165a 4537 6037 9037 2647 9936
00000370: 67c9 da38 8a58 6036 eb7e ea37 d017 0538
00000380: 335b 5c36 5f6b ca38 6608 2538 5dad 9136
00000390: 8492 ec37 ff3c 1d38 920d e936 84a7 af36
000003a0: caf6 1237 986c 0936 9736 ce37 aec7 9438
000003b0: df7d 3037 57af 4136 6f7d f738 afeb eb36
000003c0: 4374 8437 0c46 2637 4fbc c036 911c 9c37
000003d0: 492b 3e36 ea07 6237 4169 b436 7c5d c936
000003e0: d94e b137 8ff6 d837 2a8f 1637 c9f3 a236
000003f0: 0568 8c36 4f63 1639 300b cc37 8f21 aa36
8.5417654e-05 0.00044587627 9.1713e-05 2.6969697e-06 8.808328e-05 0.0001846277 0.00025055298 0.00027594235
0.00025683636 1.1797883e-05 4.5772613e-05 7.698161e-06 1.10980145e-05 8.487382e-06 1.3597269e-05 8.603966e-05
0.00014690479 1.1719521e-05 8.745654e-06 5.1570896e-05 3.6712245e-06 0.00040925865 2.036016e-05 3.879724e-05
1.6272412e-05 5.467545e-05 0.0008865492 0.00014534425 0.00016136117 1.8975577e-05 6.237888e-05 1.6202706e-05
2.0243273e-05 0.00015639499 3.3684948e-05 1.0673287e-05 9.77829e-06 5.582497e-06 0.00016086957 0.0002275443
4.0238024e-06 1.16164965e-05 0.00012062527 6.717502e-05 1.5966603e-05 4.0950585e-05 0.0008463109 7.263513e-05
0.00025478686 3.8918915e-05 1.2665322e-05 0.00030793564 0.00032234617 1.958207e-05 0.00030593137 0.00019909289
2.5016941e-05 6.949151e-05 7.3216346e-05 8.519443e-06 0.00045748893 1.5660651e-05 2.2120415e-05 5.8492493e-05
3.360503e-05 5.3855115e-06 6.7954104e-05 9.616931e-05 9.177317e-06 9.977032e-06 1.3784194e-05 0.00016458568
4.3836135e-05 1.824527e-05 0.00020049403 0.00010784719 0.00025383482 2.1277623e-05 1.3085121e-05 7.10724e-06
0.00012415963 0.00039009316 0.00010235412 2.8886994e-05 4.530799e-05 7.989039e-06 3.4684042e-05 3.4847384e-05
1.1770752e-05 3.836277e-05 8.521609e-05 6.157399e-05 1.665872e-05 2.285324e-05 4.0110946e-05 2.5095516e-05
0.00043581106 1.37390025e-05 3.3014203e-05 2.4487128e-05 1.7553743e-05 3.821201e-05 5.955909e-06 0.00012147336
6.753501e-05 9.138865e-06 0.00063236046 0.00058659154 1.5781969e-05 3.798723e-05 0.00010969972 1.5837531e-05
7.0703325e-05 4.3654904e-06 8.825109e-05 1.381481e-05 7.2365765e-05 3.9829632e-05 0.00016977961 1.1564261e-05
5.5229826e-05 0.0003044592 0.00017808257 3.3819e-05 0.0001001146 4.384768e-05 1.0763414e-05 5.541287e-05
5.8196973e-05 3.242905e-05 2.099298e-06 6.046451e-06 1.0519696e-05 8.810172e-06 5.6416247e-06 5.8132932e-06
1.5992033e-05 4.219262e-05 3.0769806e-05 2.2866476e-05 3.86085e-06 2.4525673e-06 2.8631712e-06 1.668799e-05
0.00013103512 3.088086e-05 9.69692e-06 2.0092586e-05 6.0009693e-06 3.8226586e-05 5.7037964e-06 1.0679445e-05
5.237334e-05 1.8917892e-05 4.269019e-05 1.0019725e-05 4.1382005e-05 9.179084e-06 1.5779053e-05 5.552449e-05
4.2544285e-05 0.0001511308 6.0863003e-06 3.7517361e-06 3.9389183e-06 7.966934e-06 8.90959e-06 2.7584489e-05
2.3368395e-05 4.607157e-06 2.8970044e-06 6.4664514e-06 5.2997875e-05 5.8144674e-06 3.9620852e-05 9.747597e-06
4.3174714e-05 9.733179e-06 7.970028e-05 7.7832665e-06 2.1295775e-05 2.8805218e-05 1.6280876e-05 1.8769866e-05
2.3586002e-05 2.4852665e-05 4.3633067e-06 1.049249e-05 2.1013817e-05 9.771019e-06 3.3596512e-05 5.130829e-06
1.6085409e-05 1.8649678e-05 1.3739308e-05 4.1122094e-05 3.439244e-05 7.808499e-06 5.716025e-06 0.00010837625
5.441464e-06 3.2406144e-05 8.099081e-06 6.9028733e-06 3.304289e-06 1.8838283e-06 3.680486e-05 5.0971084e-06
3.067196e-05 1.2231518e-05 2.022072e-05 1.0456601e-05 7.277017e-06 1.3865316e-05 2.74668e-06 8.399136e-06
7.782797e-06 1.176309e-05 1.7191924e-05 4.568038e-06 0.00010432564 3.3430138e-06 2.7954075e-05 3.1731848e-05
3.283564e-06 9.65211e-05 3.9346887e-05 4.341519e-06 2.8201619e-05 3.7488524e-05 6.945521e-06 5.234908e-06
8.759738e-06 2.04778e-06 2.4582534e-05 7.094383e-05 1.0519724e-05 2.8861302e-06 0.000118012416 7.030983e-06
1.5789765e-05 9.91068e-06 5.743968e-06 1.8609951e-05 2.8337402e-06 1.3472492e-05 5.376671e-06 6.00115e-06
2.113676e-05 2.586402e-05 8.97403e-06 4.8563566e-06 4.1844346e-06 0.0001434211 2.4323905e-05 5.0703015e-06
