Lab07_learning_on_sets_and_graph_generative_models/code/part1/model_deepsets.pth.tar (torch, 123362 bytes, 12 tensors)

embedding.weight f4 [11, 128]
1.7657875 1.4855913 1.3556129 -1.5275497 -0.5244962 0.64962703 0.0043700146 1.4642584
0.18162455 -0.6455877 0.5189627 -0.7589077 2.5643797 -1.181374 0.32495794 0.06337182
-0.7635706 0.3221298 -0.30836788 1.9908837 -0.47893462 1.6749144 -0.34634143 -0.20566313
-0.42935115 1.1661849 0.4174142 -0.81635356 0.41403365 0.41337356 2.149736 0.9768107
-1.1232288 2.1372664 -0.2778253 -1.4217064 -1.0815266 1.4217352 2.2404394 0.5021019
2.9530396 1.2778541 -0.4761927 0.35219043 -1.6753622 -0.66908294 -1.8322568 0.09379817
-0.07257376 0.5441991 -0.058166787 0.2677343 2.2056546 0.09691518 0.30000594 -0.022607526
1.5455922 -0.12272679 -0.25435668 -1.8936105 -0.89864886 1.0249206 2.4965973 0.02923062
0.47281465 -1.5565346 -1.3563699 1.1907096 0.9873946 -1.1806641 -0.28613716 -2.1219182
-0.4943475 -1.6877285 -1.5177156 0.53077394 -1.679629 0.93190044 0.12834926 -2.584785
-0.7749115 0.30340382 0.8612592 -1.9728084 2.0418832 0.8153641 1.7860754 -0.7878998
-0.6857387 -2.1971786 -0.5657303 -3.251939 -0.5583465 0.823401 1.515516 -1.108041
-0.4498264 -2.032671 -0.08039775 -2.3400595 0.25582817 -0.40553036 -0.8173428 1.4973806
2.0837302 -1.9958212 -1.898195 0.2781864 0.40530998 1.3313549 0.6079971 -0.30501932
0.9619589 -3.0421424 0.18990844 0.82262355 1.3201697 0.49767718 0.68029886 0.0006741389
-2.397258 -0.51856065 1.6963888 -1.8481102 1.2062814 -0.1307735 0.28963006 -0.8665317
0.7485599 -0.33883184 -0.6862046 4.455501 1.7110553 0.51465774 0.64245844 1.8489429
-0.28588673 -1.2348158 0.73591155 -0.5152923 0.4072148 -0.24691105 0.5135526 -2.248328
0.56990093 2.411294 0.27217972 -2.5465457 -0.063319586 -0.679626 -0.98958784 -1.6547738
-0.9462794 -0.35953292 1.1010733 -2.1959205 0.7024311 0.23119248 0.9470027 1.3953313
0.7179018 0.41923797 0.8498248 0.7198519 -0.4031286 -2.479614 1.5740876 0.11286524
0.07384186 -0.85101175 2.1378083 -0.26485834 -1.3031623 -1.0362408 0.13357481 -0.11428841
0.21174954 -0.5529635 -0.49659878 -0.4388147 0.28055847 -0.8432413 -0.99860793 -1.4749335
0.29286185 -0.09361651 -0.47714767 2.246941 -0.8095652 0.11986794 -0.38906538 1.0936527
0.2694887 2.5021806 -0.67297167 -0.79246646 0.79434013 1.784453 0.19920051 0.5831358
-0.38238156 0.9278843 -1.5387976 -0.80333567 0.24609937 -1.3630106 -1.4227691 -0.6227874
-1.0686117 2.8717363 0.07571066 -0.24907586 -0.24994972 0.74438596 -1.5664407 1.4776748
0.35476026 1.4228462 -0.45305648 0.21786499 -0.8887367 0.54757184 1.2444162 -0.716809
1.4981078 -1.5272698 -0.70248 2.1081898 0.14382026 0.4489708 0.17407992 -0.57257867
1.86397 -2.1886952 -0.3387413 -0.60596305 -1.415688 1.3663293 -0.8903978 -0.30711865
-1.4566935 -0.11924821 0.9659736 2.581784 -0.22381449 -0.2753433 0.6049283 -1.2055552
-1.8445615 0.23632537 1.7987056 -0.27839717 -0.4129194 0.4908663 0.10242961 -1.7945131
00000000: 5305 e23f db27 be3f b984 ad3f c086 c3bf
00000010: 6245 06bf f54d 263f 5732 8f3b d26c bb3f
00000020: c9fb 393e 3c45 25bf bdda 043f c647 42bf
00000030: cc1e 2440 4337 97bf e360 a63e 16c9 813d
00000040: 5d79 43bf 32ee a43e 65e2 9dbe 47d5 fe3f
00000050: eb36 f5be 9863 d63f aa53 b1be 5b99 52be
00000060: ead3 dbbe 8c45 953f 50b7 d53e 8cfc 50bf
00000070: 38fc d33e b3a5 d33e 4695 0940 4410 7a3f
00000080: f6c5 8fbf f9c8 0840 1e3f 8ebe 7afa b5bf
00000090: 776f 8abf 6bfb b53f 5c63 0f40 c089 003f
000000a0: 9afe 3c40 b990 a33f 88cf f3be 4e52 b43e
000000b0: 4572 d6bf 0549 2bbf 6487 eabf 4119 c03d
000000c0: 8da1 94bd a250 0b3f 4c40 6ebd 7814 893e
000000d0: 7229 0d40 777b c63d 619a 993e 6b33 b9bc
000000e0: f7d5 c53f 2f58 fbbd 0a3b 82be d461 f2bf
000000f0: da0d 66bf 9930 833f 40c8 1f40 0e75 ef3c
00000100: c314 f23e 873c c7bf 879d adbf 2c69 983f
00000110: e4c5 7c3f 0020 97bf 9280 92be 82cd 07c0
00000120: 1e1b fdbe 7d07 d8bf 8144 c2bf cde0 073f
00000130: 15fe d6bf 0791 6e3f fd6d 033e 1e6d 25c0
00000140: 9a60 46bf bf57 9b3e 7c7b 5c3f fc84 fcbf
00000150: 37ae 0240 b4bb 503f 1e9e e43f cdb3 49bf
00000160: 928c 2fbf 939e 0cc0 b3d3 10bf c51f 50c0
00000170: ccef 0ebf 68ca 523f 6efc c13f 4ad4 8dbf
00000180: a54f e6be 4817 02c0 93a7 a4bd 89c3 15c0
00000190: e9fb 823e ada1 cfbe 613d 51bf 2baa bf3f
000001a0: d65b 0540 1277 ffbf 0ef8 f2bf 736e 8e3e
000001b0: ca84 cf3e d669 aa3f b3a5 1b3f 7e2b 9cbe
000001c0: f042 763f 76b2 42c0 5c77 423e 7597 523f
000001d0: 52fb a83f 8bcf fe3e 1128 2e3f b2b8 303a
000001e0: ad6c 19c0 64c0 04bf 4523 d93f e08e ecbf
000001f0: 6e67 9a3f 7de9 05be 644a 943e 06d5 5dbf
00000200: 9fa1 3f3f 5e7b adbe 1bab 2fbf 7793 8e40
00000210: dc03 db3f 9cc0 033f 2878 243f 29aa ec3f
00000220: bf5f 92be 720e 9ebf b364 3c3f 32ea 03bf
00000230: 757e d03e 40d6 7cbe 2f78 033f 9be4 0fc0
00000240: 07e5 113f a452 1a40 245b 8b3e 9bfa 22c0
00000250: b3ad 81bd f8fb 2dbf a155 7dbf a1cf d3bf
00000260: 5e3f 72bf b314 b8be f8ef 8c3f f689 0cc0
00000270: 86d2 333f b9bd 6c3e c56e 723f 379a b23f
00000280: 6ac8 373f 5ca6 d63e 1e8e 593f 3748 383f
00000290: df66 cebe ffb1 1ec0 b47b c93f e425 e73d
000002a0: 673a 973d e8db 59bf dad1 0840 839b 87be
000002b0: 06ce a6bf 8aa3 84bf d6c7 083e 0b10 eabd
000002c0: dfd4 583e 048f 0dbf 3242 febe 52ac e0be
000002d0: 5ca5 8f3e a9de 57bf c5a4 7fbf 9fca bcbf
000002e0: fdf1 953e 03ba bfbd b34c f4be e2cd 0f40
000002f0: aa3f 4fbf 537d f53d 9433 c7be d0fc 8b3f
00000300: 6cfa 893e ba23 2040 df47 2cbf 15df 4abf
00000310: e059 4b3f f568 e43f 38fb 4b3e 6348 153f
00000320: 84c7 c3be d389 6d3f 52f7 c4bf 68a7 4dbf
00000330: 7901 7c3e 2277 aebf 4c1d b6bf ff6e 1fbf
00000340: 45c8 88bf 87ca 3740 310e 9b3d be0d 7fbe
00000350: d2f2 7fbe 1490 3e3f 2181 c8bf 7324 bd3f
00000360: 23a3 b53e d31f b63f 05f7 e7be 0018 5f3e
00000370: 4084 63bf ab2d 0c3f 0849 9f3f cb80 37bf
00000380: ffc1 bf3f 947d c3bf bbd5 33bf 95ec 0640
00000390: 9e45 133e 80df e53e 0242 323e 8494 12bf
000003a0: 9296 ee3f 9513 0cc0 806f adbe 6520 1bbf
000003b0: 4435 b5bf e1e3 ae3f 1cf1 63bf a83e 9dbe
000003c0: ef74 babf 6838 f4bd 0c4a 773f f33b 2540
000003d0: a02f 65be ccf9 8cbe 95dc 1a3f a24f 9abf
000003e0: 971a ecbf 47ff 713e fc3b e63f 138a 8ebe
000003f0: 2c6a d3be d452 fb3e 9ec6 d13d 9bb2 e5bf

fc1.weight f4 [64, 128]
0.33219945 0.11776248 0.16133803 -0.17056578 0.07677392 0.08582573 -0.28409392 0.060411923
0.13919759 0.04079878 0.37437028 0.34237576 -0.13243115 0.10476613 -0.099873535 -0.4990677
0.13059942 0.0031728859 -0.055237312 -0.13086101 0.41549134 0.09861138 -0.043111302 -0.22475004
-0.10084197 -0.021471722 0.18524866 -0.13995795 0.1779143 0.18889044 0.06937806 0.052200705
0.056667715 -0.11211169 0.10521666 -0.2789376 -0.14197645 -0.074839875 0.113550864 0.1186924
0.023389699 -0.14091642 0.22882326 0.09396298 -0.17971516 -0.056658298 -3.358456e-05 0.02418264
0.07983863 0.4369083 0.13688424 0.111584306 -0.07100576 -0.041550994 -0.101882346 -0.022090157
0.015237628 0.09105443 -0.36463165 -0.05166073 0.24909484 -0.13718954 0.23545232 0.10614106
0.03651152 0.11568954 -0.18246119 0.026185857 0.021165732 -0.022080401 -0.24594009 0.1476395
-0.22232461 -0.021933967 -0.12137681 0.08066457 -0.15269138 0.14228088 -0.12222642 -0.058137827
0.024375243 0.0045929514 0.2455142 -0.11028184 0.12212325 -0.102269866 0.1342927 0.07521867
-0.042442966 -0.06709039 -0.19374643 -0.12862748 -0.46061933 0.18110496 -0.12133299 -0.08594664
0.028182173 -0.27879435 -0.36012414 0.090768605 0.18601987 -0.096052185 0.0015126265 0.1601874
0.055945005 -0.013306443 -0.13668501 -0.023535386 -0.09602417 0.057683576 -0.031520475 -0.008974652
0.0033158832 -0.06501474 0.16279529 -0.03936022 0.40194365 -0.2951229 0.06053941 0.21671298
-0.10175376 -0.11558536 0.055290725 0.06204521 0.053289413 0.15296385 0.029113533 -0.36950237
-0.11051696 0.013044648 0.040533748 -0.03641396 -0.110003 -0.045124736 0.10477829 -0.106578894
-0.28993613 -0.024205357 -0.12021963 0.004881015 0.10913372 0.01397726 -0.18808714 0.24441025
-0.07602803 -0.007866111 0.10098684 -0.071041375 -0.18615116 0.103062384 -0.03886176 0.09418582
-0.070445985 0.23990126 -0.056370452 0.16173002 -0.18302813 -0.09093327 0.10486365 -0.007375902
0.18000025 -0.08664993 -0.02309359 0.15393065 -0.14416853 -0.04178086 -0.06106449 -0.13105126
-0.087877534 -0.077590235 -0.31487933 0.16216888 0.090233386 0.026431091 0.16658434 -0.0714108
0.07199648 -0.113548286 0.04586146 -0.0995235 -0.14185925 0.16463871 -0.08957733 0.19843587
-0.0012129259 -0.010138056 0.14312895 0.09576342 0.14552015 -0.12830892 -0.055372857 0.026526032
-0.06644777 -0.14757207 0.23339044 0.012176143 -0.083618455 -0.043069817 0.036338706 0.094587125
0.110322945 0.094882436 -0.079188146 -0.01938507 0.22620673 -0.08656993 -0.09222491 -0.021243364
0.054825954 0.06533492 0.07084948 0.2098932 0.07423859 0.14604768 0.10860373 0.07285529
0.31888962 -0.03839154 0.056364935 0.18229248 0.26742226 -0.016181465 -0.24822159 0.11919652
-0.029712949 0.06719908 -0.052431203 -0.03132602 0.14876859 0.14787917 0.03398869 -0.06457233
-0.18679552 0.16689654 0.03190666 -0.033782046 -0.021087829 -0.09956293 -0.07674311 -0.008151269
0.076175585 -0.1232136 0.11810559 -0.0022522863 -0.034957863 0.0679645 0.015250982 -0.025696503
0.09084585 -0.04112595 -0.1431532 0.19766155 -0.045749158 -0.02693868 -0.054259017 0.1727221
00000000: 0c16 aa3e 752d f13d cc35 253e cca8 2ebe
00000010: a53b 9d3d 66c5 af3d c274 91be 7e72 773d
00000020: d089 0e3e 9f1c 273d 76ad bf3e e04b af3e
00000030: 089c 07be a08f d63d 7f8a ccbd cd85 ffbe
00000040: dbbb 053e 31f0 4f3b 8540 62bd 6e00 06be
00000050: 48bb d43e c3f4 c93d 7a95 30bd e024 66be
00000060: 3c86 cebd 77e5 afbc d3b1 3d3e 2351 0fbe
00000070: 2b2f 363e 7f6c 413e 1616 8e3d 68d0 553d
00000080: 681c 683d d09a e5bd d57b d73d e9d0 8ebe
00000090: 4662 11be a645 99bd 5b8d e83d 0015 f33d
000000a0: c19b bf3c 654c 10be a550 6a3e aa6f c03d
000000b0: 4007 38be 8812 68bd 26dd 0cb8 ac1a c63c
000000c0: 7082 a33d 72b2 df3e 622b 0c3e 5086 e43d
000000d0: 786b 91bd 6031 2abd b1a7 d0bd 6bf6 b4bc
000000e0: 3ea7 793c bf7a ba3d 00b1 babe 349a 53bd
000000f0: b812 7f3e 6a7b 0cbe 6a1a 713e 7c60 d93d
00000100: 1b8d 153d a3ee ec3d 1bd7 3abe b983 d63c
00000110: c263 ad3c f5e1 b4bc b8d7 7bbe cf2e 173e
00000120: 10a9 63be ddae b3bc 6894 f8bd 7733 a53d
00000130: 215b 1cbe 14b2 113e d851 fabd ee21 6ebd
00000140: 97ae c73c 7880 963b 1368 7b3e 72db e1bd
00000150: c11b fa3d dd72 d1bd 0784 093e 3f0c 9a3d
00000160: add8 2dbd b066 89bd 7765 46be ecb6 03be
00000170: 4cd6 ebbe 9473 393e 6e7d f8bd cb04 b0bd
00000180: 4dde e63c 22be 8ebe 3162 b8be e4e4 b93d
00000190: fe7b 3e3e 02b7 c4bd 5343 c63a 2a08 243e
000001a0: 9726 653d 4403 5abc 28f7 0bbe 48cd c0bc
000001b0: 52a8 c4bd 9d45 6c3d 9d1b 01bd 6b0a 13bc
000001c0: 4a4f 593b 7326 85bd cfb3 263e 2f38 21bd
000001d0: 8fcb cd3e 591a 97be 2cf8 773d 02ea 5d3e
000001e0: 4664 d0bd 04b8 ecbd 8778 623d 1e23 7e3d
000001f0: 0046 5a3d 8ea2 1c3e 817f ee3c 6a2f bdbe
00000200: b756 e2bd 38b9 553c b706 263d ce26 15bd
00000210: 4149 e1bd b7d4 38bd 0096 d63d 0946 dabd
00000220: 8272 94be 504a c6bc b635 f6bd ecf0 9f3b
00000230: 8081 df3d e100 653c ea99 40be ae46 7a3e
00000240: 95b4 9bbd dce0 00bc 30d2 ce3d 247e 91bd
00000250: 699e 3ebe 5f12 d33d 822d 1fbd 7fe4 c03d
00000260: fc45 90bd ada8 753e b4e4 66bd 8e9c 253e
00000270: ba6b 3bbe 393b babd c1c2 d63d 8db1 f1bb
00000280: fc51 383e 8575 b1bd c52e bdbc ff9f 1d3e
00000290: eaa0 13be 6822 2bbd c21e 7abd 4d32 06be
000002a0: 23f9 b3bd a1e7 9ebd dd37 a1be 990f 263e
000002b0: 48cc b83d 0486 d83c 1695 2a3e d33f 92bd
000002c0: e472 933d 018c e8bd 3ad9 3b3d fad2 cbbd
000002d0: 8d43 11be 0d97 283e 5274 b7bd c632 4b3e
000002e0: 0afb 9eba 171a 26bc 6590 123e 9d1f c43d
000002f0: 3c03 153e 6a63 03be a6ce 62bd 1f4d d93c
00000300: c515 88bd 221d 17be e7fd 6e3e 727e 473c
00000310: 2740 abbd fa69 30bd e5d7 143d e5b6 c13d
00000320: fff0 e13d b951 c23d 652d a2bd 70cd 9ebc
00000330: bda2 673e 934b b1bd 6ae0 bcbd 9006 aebc
00000340: 2e91 603d 51ce 853d 8819 913d 3eee 563e
00000350: 670a 983d 868d 153e a26b de3d 2735 953d
00000360: 8045 a33e 7340 1dbd ebde 663d e1aa 3a3e
00000370: 92eb 883e fe8e 84bc cd2d 7ebe 4e1d f43d
00000380: 9268 f3bc ac9f 893d 1ac2 56bd b64f 00bd
00000390: cb56 183e a36d 173e b937 0b3d 7f3e 84bd
000003a0: 5347 3fbe ede6 2a3e 8fb0 023d 0b5f 0abd
000003b0: 62c0 acbc a6e7 cbbd 7e2b 9dbd e68c 05bc
000003c0: f201 9c3d 6957 fcbd 58e1 f13d 189b 13bb
000003d0: fa2f 0fbd f930 8b3d 41df 793c 7981 d2bc
000003e0: 640d ba3d af73 28bd c196 12be ca67 4a3e
000003f0: 7863 3bbd 82ae dcbc b43e 5ebd 10de 303e

fc1.bias f4 [64]
0.11638166 0.037929334 0.07824297 -0.117394194 0.10610184 -0.04350709 -0.17066357 0.16214354
-0.15503079 0.09103422 0.10088169 0.10527815 0.021962663 0.07681597 0.10451169 0.09931924
0.16443716 0.07929993 -0.16386397 0.0797107 0.015543555 -0.033628218 -0.06962483 0.053195115
0.038651016 0.13357009 0.110726796 -0.15995269 0.0521305 -0.058880903 0.030530019 -0.06538052
-0.16352196 0.088451825 0.016400123 -0.02586919 -0.19162962 0.07689609 -0.17637971 0.11883088
-0.12190191 0.031379417 0.0033952747 0.09136085 0.021641335 -0.05290392 0.14091092 0.14086357
0.12529348 0.030697044 -0.102460295 0.030611567 -0.09106516 -0.027503872 0.05051836 0.023561552
0.13118623 0.071934454 0.15473334 0.00019993074 -0.017740576 0.04970138 -0.013214372 0.04725095
00000000: 8259 ee3d ca5b 1b3d da3d a03d 5e6c f0bd
00000010: ec4b d93d 7e34 32bd 6ec2 2ebe f508 263e
00000020: 64c0 1ebe 2670 ba3d 0f9b ce3d 129c d73d
00000030: 0beb b33c b151 9d3d 3a0a d63d e367 cb3d
00000040: 3762 283e 0068 a23d f5cb 27be 5d3f a33d
00000050: 65aa 7e3c bebd 09bd 7697 8ebd 1fe3 593d
00000060: 8750 1e3d 99c6 083e bbc4 e23d a3ca 23be
00000070: cb86 553d 1a2d 71bd 171a fa3c 39e6 85bd
00000080: 4d72 27be 3b26 b53d 8d59 863c a0eb d3bc
00000090: 8e3a 44be b27b 9d3d e29c 34be 9b5d f33d
000000a0: b5a7 f9bd b487 003d 4283 5e3b 661b bb3d
000000b0: 2b49 b13c c8b1 58bd f44a 103e 8a3e 103e
000000c0: ef4c 003e 5e78 fb3c b4d6 d1bd 1cc5 fa3c
000000d0: 5f80 babd cd4f e1bc 57ec 4e3d 2804 c13c
000000e0: af55 063e 5f52 933d 6b72 1e3e 80a4 5139
000000f0: af54 91bc ad93 4b3d 1881 58bc 368a 413d

fc2.weight f4 [1, 64]
-0.17336524 0.16222388 0.17702034 -0.17959057 0.11216918 -0.089713745 -0.1576721 0.12011609
-0.16878344 0.181794 0.14814696 0.1126282 0.111237705 0.14787921 0.1617651 0.20511891
0.13064106 0.18577866 -0.09439036 0.1525423 0.21893808 -0.17428675 -0.10894563 0.125623
0.14794935 0.11301501 0.18460326 -0.13311483 0.16486871 -0.162014 0.21327558 -0.19844367
-0.13625722 0.23699869 0.2038181 -0.15659249 0.38049796 0.17234318 -0.19709763 0.18037821
-0.066149995 0.17663574 0.13279468 0.116537385 -0.1313302 -0.10496981 0.11618998 0.21712375
0.14830022 0.103492 -0.16511394 0.13208856 -0.07988005 0.2404544 0.17431724 -0.17846073
0.13506825 0.12858896 0.09167383 -0.16164634 -0.108791046 0.13578258 -0.1656781 0.19918412
00000000: a886 31be 041e 263e d244 353e 97e6 37be
00000010: f4b8 e53d d7bb b7bd cc74 21be 6dff f53d
00000020: 91d5 2cbe 3528 3a3e d6b3 173e 9da9 e63d
00000030: 98d0 e33d a66d 173e c0a5 253e b10a 523e
00000040: c5c6 053e c33c 3e3e bc4f c1bd 0c34 1c3e
00000050: 4e31 603e 3a78 32be e31e dfbd 51a3 003e
00000060: 0980 173e 6a74 e73d a308 3d3e 414f 08be
00000070: 58d3 283e ffe6 25be ea64 5a3e d134 4bbe
00000080: 0387 0bbe c9af 723e b1b5 503e c859 20be
00000090: a1d0 c23e bb7a 303e f6d3 49be 11b5 383e
000000a0: a679 87bd 00e0 343e 54fb 073e 27ab ee3d
000000b0: 6d7b 06be 69fa d6bd 03f5 ed3d b055 5e3e
000000c0: 03dc 173e 9df3 d33d a113 29be 3942 073e
000000d0: 2798 a3bd ae39 763e 3880 323e 69be 36be
000000e0: 554f 0a3e d3ac 033e 7dbf bb3d 9e86 25be
000000f0: d7cd debd 970a 0b3e 85a7 29be ecf6 4b3e

exp_avg f4 [11, 128]
-5.4808456e-06 -2.2894363e-05 -3.898528e-06 1.9178664e-05 2.901617e-05 -1.7215863e-05 -2.8850285e-05 -1.2193752e-05
2.3360752e-05 1.1176267e-05 3.9801744e-06 -3.959161e-06 -8.463517e-06 6.6785597e-06 2.1792508e-05 -2.1075539e-05
2.2295666e-05 -2.859621e-05 -1.9817944e-05 1.818463e-05 2.4669345e-05 -2.6692494e-05 -2.5735553e-05 -4.570716e-06
1.8874825e-05 -6.703809e-06 -5.25388e-06 3.6372994e-06 1.9111929e-05 -2.0985435e-05 -2.3599441e-05 -1.9979247e-05
1.5727036e-06 4.132909e-06 -1.53133e-05 5.876194e-07 2.339642e-05 9.684044e-06 5.8452456e-06 1.8041592e-05
-8.224021e-06 1.2913493e-05 1.0228971e-05 -3.615682e-05 9.085062e-06 -2.3403056e-05 -1.1379936e-05 1.8337114e-05
-2.8839759e-05 -7.402208e-06 -2.700321e-05 -1.4159199e-05 6.330867e-06 1.1376881e-06 1.9634665e-05 9.22181e-06
-2.3813118e-05 3.0014678e-05 -1.2786258e-05 -1.43886355e-05 2.7191106e-06 -8.948577e-06 -1.51825325e-05 -1.961343e-05
1.3865735e-05 2.9978917e-06 1.0268058e-05 -2.774728e-05 -1.9441655e-05 2.0920732e-05 -2.2554312e-05 -1.9172441e-05
4.172626e-06 -4.9394753e-06 1.6450034e-05 1.3969475e-05 1.2371104e-05 7.158107e-06 1.137676e-05 1.9306211e-05
-1.7284961e-05 -9.040642e-06 -2.5394183e-05 3.2817036e-06 -2.7518361e-05 -2.1499955e-05 -2.4339759e-05 -1.9435776e-05
4.0702025e-06 1.1278786e-05 -7.1386917e-06 1.269646e-05 6.257352e-06 -8.4327885e-06 9.931331e-07 -1.4859746e-05
2.8599512e-05 2.6087779e-05 -1.1246032e-05 1.0719372e-06 -2.6105954e-05 -1.3466458e-05 1.5806683e-05 -1.0959305e-05
7.5178704e-08 -3.4203326e-06 7.4560085e-06 1.712352e-05 2.3643866e-05 -1.7365515e-05 1.780005e-05 2.2105528e-06
-2.1799056e-05 5.2519786e-06 -2.3950799e-05 -1.7476408e-05 -8.3048093e-07 4.2877596e-06 -2.9090852e-05 7.659831e-06
1.6671569e-05 2.7848986e-05 1.235571e-05 1.4944799e-05 5.8302912e-06 -2.6539168e-05 -1.7490182e-05 5.5880573e-06
-1.5367177e-05 -5.2050273e-05 -2.017263e-06 1.9958265e-05 5.798929e-05 -4.2089574e-05 -7.452173e-05 -3.416505e-05
6.9021335e-05 4.1610525e-05 2.3015953e-05 -9.245428e-06 -9.533078e-06 1.9775689e-05 6.320569e-05 -3.923318e-05
5.3897744e-05 -8.203893e-05 -5.6907233e-05 6.20066e-05 5.343844e-05 -6.031254e-05 -6.723014e-05 6.955644e-06
5.614318e-05 -2.672818e-06 -4.1128336e-05 3.2685282e-05 4.2337062e-05 -4.4520173e-05 -5.4767002e-05 -5.9778427e-05
-1.2663443e-05 2.9741681e-05 -4.9805858e-05 -1.6164257e-05 5.510438e-05 3.9450253e-05 2.8132838e-05 5.344794e-05
7.306905e-06 4.4661174e-05 1.3134739e-05 -8.6876404e-05 9.202904e-06 -7.236183e-05 -4.379818e-05 3.8777664e-05
-7.0527494e-05 3.987964e-06 -7.085245e-05 -2.5931251e-05 3.6369653e-05 1.4393237e-05 5.0156155e-05 4.070223e-05
-5.0808685e-05 6.8131354e-05 -2.3213839e-05 -4.752458e-05 6.773354e-06 -1.5029824e-05 -2.535917e-05 -5.7757214e-05
3.689172e-05 -2.023713e-05 2.748498e-05 -5.2750165e-05 -4.491924e-05 3.0123152e-05 -6.646276e-05 -5.8299505e-05
9.206017e-06 -2.7635997e-05 4.6870646e-05 5.0002167e-05 1.9356974e-05 3.930083e-05 4.9801547e-05 4.736836e-05
-4.6696103e-05 -4.4206172e-05 -7.071063e-05 3.3759932e-06 -6.947387e-05 -5.3190644e-05 -3.0611285e-05 -6.461135e-05
-1.15763505e-05 -1.5762441e-06 -1.8376932e-05 1.0273403e-05 2.2294527e-05 -2.4563871e-05 3.942916e-06 -4.133726e-05
6.0369057e-05 7.001404e-05 -2.3873945e-05 -2.857105e-05 -6.998546e-05 -4.3545046e-05 2.5571637e-05 -1.3913682e-05
-1.7749701e-06 -1.3444209e-05 1.2325875e-05 4.3476826e-05 7.3281466e-05 -5.3807267e-05 5.4944103e-05 2.2662673e-06
-3.8320584e-05 1.1240121e-06 -8.629512e-05 -5.4928714e-05 1.9152034e-05 1.9594261e-05 -7.7816374e-05 3.8433453e-05
4.943462e-05 6.962099e-05 3.676758e-05 1.6922751e-05 2.9499468e-05 -8.490844e-05 -4.101491e-05 1.6415435e-05
00000000: 1be8 b7b6 450d c0b7 1ad0 82b6 dee1 a037
00000010: c067 f337 c96a 90b7 8403 f2b7 c493 4cb7
00000020: d5f6 c337 b481 3b37 708d 8536 efd8 84b6
00000030: 87fe 0db7 6418 e036 0ecf b637 60cb b0b7
00000040: 9407 bb37 e5e1 efb7 b63e a6b7 328b 9837
00000050: 04f1 ce37 b2e9 dfb7 aee2 d7b7 275e 99b6
00000060: 6155 9e37 48f1 e0b6 7c4a b0b6 5418 7436
00000070: 8e52 a037 e109 b0b7 6af7 c5b7 1b99 a7b7
00000080: af15 d335 6bad 8a36 1075 80b7 e6bc 1d35
00000090: 6e43 c437 a778 2237 4722 c436 0658 9737
000000a0: e7f9 09b7 08a7 5837 199d 2b37 17a7 17b8
000000b0: 0b6c 1837 ae51 c4b7 74ec 3eb7 a7d2 9937
000000c0: e9ec f1b7 7c60 f8b6 f484 e2b7 4c8d 6db7
000000d0: bc6d d436 aab2 9835 1fb5 a437 5fb7 1a37
000000e0: 48c2 c7b7 08c8 fb37 8f84 56b7 b866 71b7
000000f0: f779 3636 d821 16b7 7bb8 7eb7 8587 a4b7
00000100: e1a0 6837 632f 4936 f944 2c37 d4c2 e8b7
00000110: a316 a3b7 ee7e af37 0433 bdb7 81d4 a0b7
00000120: 9602 8c36 c5bd a5b6 2efe 8937 705e 6a37
00000130: 7d8d 4f37 ac2f f036 d0de 3e37 c6f3 a137
00000140: 2cff 90b7 43ad 17b7 9805 d5b7 3d3b 5c36
00000150: 3bd7 e6b7 cd5a b4b7 3c2d ccb7 030a a3b7
00000160: c692 8836 043a 3d37 e588 efb6 e102 5537
00000170: 3ff6 d136 8d7a 0db7 cb4b 8535 204e 79b7
00000180: fce8 ef37 14d7 da37 57ad 3cb7 7bdf 8f35
00000190: 1cfe dab7 ffed 61b7 9898 8437 dbdd 37b7
000001a0: ee71 a133 de88 65b6 a02e fa36 7ba4 8f37
000001b0: d156 c637 29ac 91b7 5151 9537 0259 1436
000001c0: 1edd b6b7 273a b036 f3e9 c8b7 4d9a 92b7
000001d0: 37ee 5eb5 93df 8f36 2108 f4b7 b982 0037
000001e0: ecd9 8b37 3e9d e937 5f4b 4f37 6cbb 7a37
000001f0: d2a1 c336 6ea0 deb7 e1b7 92b7 0c81 bb36
00000200: c3e8 80b7 8e50 5ab8 5060 07b6 0c6c a737
00000210: 8739 7338 5689 30b8 8d48 9cb8 714c 0fb8
00000220: 8cbf 9038 f686 2e38 6212 c137 d01c 1bb7
00000230: 42f0 1fb7 f8e3 a537 4c8d 8438 4e8e 24b8
00000240: 4310 6238 510c acb8 adaf 6eb8 8a09 8238
00000250: 1723 6038 19f8 7cb8 e8fd 8cb8 8764 e936
00000260: 487b 6b38 aa5e 33b6 3781 2cb8 8e17 0938
00000270: 1393 3138 2cbb 3ab8 9fb5 65b8 99ba 7ab8
00000280: 1375 54b7 c67d f937 a2e6 50b8 7a98 87b7
00000290: e11f 6738 6377 2538 cffe eb37 4a2d 6038
000002a0: d62d f536 9252 3b38 465d 5c37 6a31 b6b8
000002b0: 2c66 1a37 f6c0 97b8 f0b3 37b8 33a5 2238
000002c0: 29e8 93b8 5ad0 8536 9f96 94b8 f086 d9b7
000002d0: 9e8b 1838 7b7a 7137 c35e 5238 b0b7 2a38
000002e0: 691b 55b8 bee1 8e38 57bb c2b7 2155 47b8
000002f0: ab46 e336 9a28 7cb7 67ba d4b7 5640 72b8
00000300: 2fbc 1a38 e8c2 a9b7 8c8f e637 0f40 5db8
00000310: ab67 3cb8 fab0 fc37 ec61 8bb8 9e86 74b8
00000320: 8b73 1a37 dad3 e7b7 f996 4438 6bb9 5138
00000330: c960 a237 f2d6 2438 01e2 5038 64ad 4638
00000340: 8fdb 43b8 046a 39b8 7b4a 94b8 1f8f 6236
00000350: 80b2 91b8 0519 5fb8 9e64 00b8 f47f 87b8
00000360: 0c38 42b7 568f d3b5 2928 9ab7 ee5b 2c37
00000370: 2205 bb37 830e ceb7 644d 8436 8c61 2db8
00000380: c834 7d38 80d4 9238 e844 c8b7 ddab efb7
00000390: 28c5 92b8 23a4 36b8 ac82 d637 cf6e 69b7
000003a0: 823b eeb5 708e 61b7 3bcb 4e37 e35a 3638
000003b0: b0ae 9938 1daf 61b8 c873 6638 2d16 1836
000003c0: 6aba 20b8 c3dc 9635 57f9 b4b8 4263 66b8
000003d0: aea8 a037 5b5e a437 5931 a3b8 9b33 2138
000003e0: 0558 4f38 7c01 9238 e336 1a38 55f5 8d37
000003f0: a075 f737 df10 b2b8 6d07 2cb8 e1b3 8937

exp_avg_sq f4 [11, 128]
1.9062158e-08 3.536348e-07 7.628754e-09 2.3758498e-07 6.1966534e-07 1.8076138e-07 5.897658e-07 1.05894806e-07
3.781536e-07 8.3577014e-08 1.0162797e-08 7.204773e-09 4.7176357e-08 2.6540677e-08 3.303475e-07 3.1794784e-07
3.4325416e-07 5.662932e-07 2.9864162e-07 2.1564273e-07 4.20527e-07 5.0452064e-07 4.5605157e-07 1.3823637e-08
2.4374756e-07 2.407281e-08 1.5417445e-08 7.1304593e-09 2.5858537e-07 3.1927743e-07 3.8106094e-07 2.626883e-07
3.8383967e-09 8.89569e-09 1.6637885e-07 1.4940171e-10 3.816046e-07 6.53878e-08 2.045092e-08 2.4473354e-07
4.2913122e-08 1.1823383e-07 6.452559e-08 9.052116e-07 5.7445973e-08 4.046937e-07 8.168965e-08 2.5950712e-07
5.640731e-07 3.0603236e-08 4.9454826e-07 1.2310832e-07 2.6522475e-08 5.7501537e-10 2.7376007e-07 6.4989464e-08
3.829654e-07 6.2688974e-07 1.130038e-07 1.4467446e-07 4.606067e-09 5.787652e-08 1.8070045e-07 2.5257316e-07
1.3585864e-07 3.643601e-09 8.752396e-08 5.3240547e-07 2.6582634e-07 3.2722457e-07 3.7003502e-07 2.4791962e-07
1.4982675e-08 2.2491529e-08 1.9003781e-07 1.4259696e-07 1.2246865e-07 3.178556e-08 9.294527e-08 2.5926468e-07
2.1214194e-07 5.9600893e-08 4.2475406e-07 1.0724454e-08 5.019287e-07 3.2353623e-07 3.8756843e-07 2.5720863e-07
1.4657541e-08 7.331077e-08 3.6245982e-08 1.0697766e-07 2.2452522e-08 4.9272526e-08 2.1729317e-10 1.4869751e-07
5.6891463e-07 4.5559602e-07 1.180017e-07 3.5404138e-10 4.8212604e-07 1.2528666e-07 1.7534798e-07 8.3365585e-08
7.08334e-11 9.009062e-09 3.2394382e-08 2.144668e-07 3.7932534e-07 1.9911738e-07 2.3030783e-07 4.564692e-09
3.2627415e-07 1.6122105e-08 4.0228693e-07 2.1576112e-07 1.3847783e-09 1.1095061e-08 5.818086e-07 5.0333032e-08
1.83371e-07 5.2453214e-07 1.00258056e-07 1.4908726e-07 3.2517924e-08 5.4182107e-07 2.1182422e-07 2.6131344e-08
7.1087115e-08 9.769909e-07 1.7186758e-09 1.4001357e-07 1.2920533e-06 5.5652765e-07 2.0671312e-06 4.0629178e-07
1.7085385e-06 5.945007e-07 1.793995e-07 1.4775414e-08 2.7000183e-08 8.981739e-08 1.4824801e-06 6.2889933e-07
1.0638204e-06 2.4163953e-06 1.291773e-06 1.3286095e-06 1.0725331e-06 1.3845859e-06 1.5561369e-06 1.251908e-08
1.1406152e-06 4.1019743e-10 4.6560686e-07 2.8690062e-07 6.9814234e-07 8.018486e-07 1.1006437e-06 1.1002236e-06
3.8313118e-08 2.6123584e-07 9.066449e-07 1.0574888e-07 1.0999623e-06 5.6043683e-07 2.3687494e-07 1.1087068e-06
3.0106218e-08 7.2183286e-07 3.8149704e-08 2.7812207e-06 4.541554e-08 2.0055797e-06 6.6066343e-07 6.581318e-07
1.7891123e-06 7.0880013e-09 1.7985399e-06 1.8611142e-07 4.5577903e-07 4.9638757e-08 9.702223e-07 6.0388027e-07
9.439963e-07 1.7469463e-06 2.2982326e-07 8.109668e-07 6.5463173e-09 9.099134e-08 2.9144414e-07 1.1030611e-06
5.227688e-07 1.7411746e-07 3.0786515e-07 1.0306904e-06 7.5008643e-07 3.9351096e-07 1.6906229e-06 1.2155065e-06
5.328694e-08 3.1223462e-07 7.9324894e-07 9.4668445e-07 2.016607e-07 5.1254074e-07 9.31519e-07 8.260993e-07
7.919862e-07 7.25355e-07 1.6292497e-06 8.111962e-09 1.7020362e-06 1.0165821e-06 3.3388386e-07 1.5208859e-06
2.571637e-08 3.6814016e-09 1.2231864e-07 3.3036304e-08 1.3041928e-07 1.9754002e-07 1.9567237e-09 6.142475e-07
1.3965255e-06 1.591383e-06 3.1415829e-07 3.1411003e-07 1.8412261e-06 6.7829126e-07 2.3435342e-07 8.0221874e-08
2.0647088e-10 7.511914e-08 3.295326e-08 7.1940497e-07 1.912429e-06 9.982302e-07 1.1134504e-06 7.653253e-09
5.2945063e-07 6.8373784e-10 2.6142902e-06 1.0872675e-06 9.202492e-08 1.5337527e-07 2.212056e-06 5.967769e-07
7.27649e-07 1.7899392e-06 4.942565e-07 9.844736e-08 3.9392935e-07 2.9372363e-06 6.06464e-07 1.0777083e-07
00000000: 21be a332 32db bd34 9d0f 0332 dd1a 7f34
00000010: 1457 2635 4f17 4234 6650 1e35 4968 e333
00000020: 0905 cb34 f37a b333 7498 2e32 da8d f731
00000030: f49e 4a33 91fb e332 9d5a b134 6bb2 aa34
00000040: 7e48 b834 5f03 1835 fe54 a034 6c8b 6734
00000050: cac4 e134 656e 0735 40d7 f434 007d 6d32
00000060: 69dc 8234 abc8 ce32 526f 8432 2f00 f531
00000070: b4d3 8a34 2869 ab34 9e94 cc34 9b07 8d34
00000080: e5e2 8331 a9d3 1832 dfa5 3234 d844 242f
00000090: 56df cc34 536b 8c33 0cac af32 ec63 8334
000000a0: 7a4f 3833 bce7 fd33 5191 8a33 abfd 7235
000000b0: 84ba 7633 ae44 d934 5c6d af33 6352 8b34
000000c0: cf6a 1735 9d70 0333 19c1 0435 c22f 0434
000000d0: 8ad3 e332 1c0f 1e30 4cf9 9234 5690 8b33
000000e0: 5d9a cd34 8947 2835 7fac f233 d057 1b34
000000f0: 6543 9e31 e893 7833 9006 4234 6499 8734
00000100: 8ae0 1134 e862 7a31 cef4 bb33 a0ea 0e35
00000110: e5b6 8e34 67ad af34 3aa9 c634 d019 8534
00000120: 40b3 8032 6533 c132 320d 4c34 c11c 1934
00000130: ed7f 0334 9884 0833 3499 c733 1131 8b34
00000140: 22c9 6334 e0fb 7f33 c109 e434 a63e 3832
00000150: 47bc 0635 7bb2 ad34 0013 d034 7c16 8a34
00000160: 8cd0 7b32 066f 9d33 e1ac 1b33 97bb e533
00000170: 9edd c032 b79f 5333 97ea 6e2f a9a9 1f34
00000180: 84b7 1835 a498 f434 1f68 fd33 e5a2 c22f
00000190: 736b 0135 8986 0634 4947 3c34 b706 b333
000001a0: a9c3 9b2e 46c6 1a32 0022 0b33 2f48 6634
000001b0: 14a6 cb34 f8cc 5534 894a 7734 75d7 9c31
000001c0: c72a af34 e27c 8a32 e5f9 d734 f7ab 6734
000001d0: 8e52 be30 989c 3e32 952d 1c35 c12d 5833
000001e0: a3e4 4434 93cd 0c35 734d d733 cb14 2034
000001f0: d6a9 0b33 a971 1135 cc71 6334 6f77 e032
00000200: 8ea8 9833 2721 8335 8736 ec30 a356 1634
00000210: 9d6a ad35 4a64 1535 0bb9 0a36 5120 da34
00000220: f050 e535 c795 1f35 f6a0 4034 f5d6 7d32
00000230: 08ee e732 a2e1 c033 a1f9 c635 a2d1 2835
00000240: 97c8 8e35 5b29 2236 fb60 ad35 ad52 b235
00000250: f5f3 8f35 02d6 b935 75dc d035 7f13 5732
00000260: 3d17 9935 2882 e12f 85f8 f934 5207 9a34
00000270: fa67 3b35 9e3e 5735 d4b9 9335 65ab 9335
00000280: b88d 2433 fb3f 8c34 2a60 7335 1018 e333
00000290: 6ba2 9335 ed70 1635 b057 7e34 e0ce 9435
000002a0: 234e 0133 fac3 4135 0bda 2333 02a5 3a36
000002b0: ea0e 4333 9997 0636 7258 3135 79aa 3035
000002c0: 6e21 f035 b88a f331 5c65 f135 ebd5 4734
000002d0: cbb1 f434 6432 5533 9638 8235 561a 2235
000002e0: ef66 7d35 9e78 ea35 56c5 7634 37b1 5935
000002f0: 04ee e031 0567 c333 c777 9c34 e40c 9435
00000300: 6654 0c35 0bf5 3a34 aa48 a534 4156 8a35
00000310: 8c59 4935 bc43 d334 5ce9 e235 7c24 a335
00000320: 9cdd 6433 33a1 a734 a7ef 5435 a91f 7e35
00000330: 1288 5834 8895 0935 800d 7a35 1dc1 5d35
00000340: e198 5435 04b6 4235 98ac da35 c95c 0b32
00000350: 8571 e435 7f71 8835 a640 b334 3e21 cc35
00000360: e5e6 dc32 e7fb 7c31 b156 0334 cde3 0d33
00000370: 6109 0c34 631b 5434 0c77 0631 c4e2 2435
00000380: 4070 bb35 8197 d535 96a9 a834 f4a2 a834
00000390: 0c20 f735 d213 3635 94a2 7b34 7146 ac33
000003a0: 6304 632f 2f51 a133 7e88 0d33 221d 4135
000003b0: 4857 0036 eefa 8535 dd71 9535 5d7b 0332
000003c0: 921f 0e35 c6f1 3b30 2a71 2f36 3aee 9135
000003d0: 3c9f c533 79af 2434 d572 1436 3232 2035
000003e0: a953 4335 d83d f035 0cad 0435 026a d333
000003f0: 3d7d d334 561d 4536 e4cb 2235 a46f e733

exp_avg f4 [64, 128]
-3.1308804e-07 2.7778829e-06 1.3678707e-06 -1.571568e-06 -5.710375e-07 -8.756129e-07 1.9722886e-06 1.3896398e-06
-1.8876473e-06 -3.052463e-07 4.3771402e-07 4.672162e-07 2.2355107e-06 1.8588595e-06 -5.0319773e-06 1.3014102e-06
-1.5012441e-06 3.840259e-06 4.109458e-06 -1.0402654e-06 -2.3698828e-06 1.0067018e-06 1.0909665e-06 1.4851065e-06
-5.190841e-06 -8.446507e-07 -1.1940848e-06 1.356528e-06 -4.1365865e-06 -1.1225994e-06 2.6100147e-06 1.962964e-06
-2.0329683e-06 -5.31025e-07 2.218132e-06 2.1285623e-06 -4.4662056e-06 -2.2480826e-06 -3.2680506e-07 -4.7737476e-06
-1.1107053e-06 -1.4496137e-06 2.7070928e-07 8.7228864e-07 -3.9548183e-07 8.252568e-06 2.9436164e-06 -4.106758e-06
2.7976089e-06 -1.3377265e-06 4.0207146e-06 3.5107422e-07 -4.502624e-06 3.11137e-08 -4.832101e-06 -2.5261234e-06
3.019937e-06 -4.0638542e-06 1.5958609e-06 2.7622934e-06 1.9149267e-07 5.0632445e-07 1.2445026e-06 1.3045334e-06
-3.3796255e-06 -1.571013e-07 -7.684415e-07 3.403876e-06 3.1272243e-06 -2.4885279e-07 2.1240025e-06 3.1325199e-06
9.794057e-08 5.0713584e-06 -3.760741e-06 -2.8516517e-06 -2.6135228e-07 -6.418276e-07 4.773835e-07 -3.5414162e-06
4.2540346e-06 4.0748655e-06 6.8156896e-07 1.4027107e-07 4.1885287e-06 2.7185642e-06 2.7951137e-06 5.18651e-06
-1.8432978e-06 4.167217e-07 7.8612527e-07 -1.3980292e-06 9.563275e-07 9.592848e-07 1.8205939e-06 3.4831098e-06
-4.549606e-06 6.0234163e-07 1.271282e-06 1.1893109e-06 2.4935334e-06 1.5205125e-06 -1.1029293e-06 2.921673e-06
-3.03891e-06 6.3809603e-06 1.4940896e-07 -5.3591066e-06 -4.520029e-06 -2.4649938e-07 -3.5631845e-06 1.418262e-07
7.796426e-06 1.3592655e-06 -1.3155862e-06 5.445013e-06 1.819707e-07 -2.0534375e-07 6.3215202e-06 -2.0950822e-06
-4.2163802e-07 -3.3542187e-07 -5.2779747e-06 -2.43735e-06 -1.5267084e-06 9.0201456e-07 -1.8175493e-06 5.0900735e-07
5.4464103e-06 -0.00010257165 -5.9771468e-05 4.553584e-05 -2.0165591e-05 8.753714e-06 -4.1389012e-05 1.5853628e-05
6.8521724e-05 1.3241016e-05 2.4079059e-06 -1.0584323e-05 -2.7051177e-05 -3.5228375e-05 0.0001284298 -4.3834138e-05
4.7422203e-05 -7.5110634e-05 -4.7050908e-05 3.8430782e-05 7.376095e-05 -5.69672e-06 9.199377e-06 -2.3723785e-05
0.00010128726 9.56254e-07 2.9958823e-05 -3.6258163e-05 0.00010524415 2.9360846e-05 -6.282411e-05 -1.9946281e-05
1.0437008e-05 5.4003726e-06 -4.1404444e-05 -5.5645716e-05 8.740029e-05 4.9246115e-05 -2.3304085e-06 0.00012440223
1.6618562e-05 2.460849e-05 2.0181375e-05 -2.5549485e-05 2.2601112e-06 -0.00017352529 -6.3938336e-05 6.355187e-05
-5.141976e-05 2.9407156e-05 -0.00010150295 1.5269721e-05 0.00011054051 -9.914603e-06 0.00014098971 3.6176487e-05
-6.378082e-05 7.282699e-05 -4.4685323e-05 -5.776134e-05 -6.595536e-06 -8.78207e-07 -5.917679e-06 -2.7750806e-05
8.208593e-05 2.615126e-05 -2.0488478e-05 -7.279167e-05 -5.70743e-05 -1.1219598e-05 -1.5407786e-05 -4.70029e-05
-1.032761e-05 -9.3353075e-05 7.631578e-05 8.036e-05 -8.354297e-06 3.471346e-05 6.3164325e-06 7.7940065e-05
-8.969403e-05 -6.532164e-05 4.0415616e-06 -3.3934844e-05 -7.783822e-05 -4.7454898e-05 -5.2680563e-05 -0.00010348542
5.8021255e-06 -1.150076e-05 -1.1840607e-05 1.28916545e-05 -2.9079758e-05 -1.3887581e-05 -5.4615225e-06 -0.000100366255
0.000101223726 -3.3787663e-05 3.09282e-06 -1.7801e-05 -3.61036e-05 -5.5853223e-05 2.1590698e-05 -5.8150308e-05
8.716355e-05 -0.00013545837 5.681314e-07 0.00013005272 9.487367e-05 -1.0827596e-05 6.885768e-05 1.1121183e-05
-0.00015855375 -5.4008734e-07 3.2265412e-05 -0.00010724779 -5.00149e-06 2.1184727e-05 -0.000110246314 3.1087762e-05
-1.5064829e-05 1.0460701e-05 0.00011037316 3.2260392e-05 1.6726231e-05 -8.985324e-06 2.365555e-05 -3.5245313e-05
00000000: 7e16 a8b4 aa6b 3a36 ae97 b735 aaee d2b5
00000010: 6649 19b5 a90b 6bb5 a95b 0436 a983 ba35
00000020: 115b fdb5 bbe0 a3b4 f5fe ea34 b5d5 fa34
00000030: c805 1636 ed7d f935 5bd8 a8b6 1dac ae35
00000040: 5b7e c9b5 93db 8036 fae3 8936 3f9f 8bb5
00000050: 470a 1fb6 031e 8735 536d 9235 df53 c735
00000060: fc2c aeb6 f4bb 62b5 7144 a0b5 f211 b635
00000070: 02cd 8ab6 39ac 96b5 b627 2f36 77bb 0336
00000080: 216e 08b6 c38b 0eb5 38db 1436 6cd8 0e36
00000090: 6adc 95b6 c4dd 16b6 bf73 afb4 2e2e a0b6
000000a0: 8b13 95b5 5990 c2b5 0056 9134 3827 6a35
000000b0: 9c52 d4b4 8274 0a37 f28a 4536 c8cc 89b6
000000c0: 8ebe 3b36 ef8b b3b5 ade9 8636 467b bc34
000000d0: 3f15 97b6 e0a1 0533 6e23 a2b6 7886 29b6
000000e0: 1faa 4a36 3e5c 88b6 5d31 d635 d75f 3936
000000f0: 1b9d 4d34 5aea 0735 c908 a735 6d17 af35
00000100: 86cd 62b6 adaf 28b4 e646 4eb5 256e 6436
00000110: 4edd 5136 119a 85b4 168a 0e36 4838 5236
00000120: 6653 d233 a32a aa36 0a61 7cb6 015f 3fb6
00000130: fc4f 8cb4 0f4a 2cb5 8b25 0035 11a9 6db6
00000140: e1bd 8e36 d4ba 8836 10f5 3635 6b9d 1634
00000150: 308b 8c36 9470 3636 b093 3b36 c807 ae36
00000160: 3b67 f7b5 cbb9 df34 1e06 5335 eba3 bbb5
00000170: 2a5b 8035 c6c0 8035 215b f435 5fbf 6936
00000180: d1a8 98b6 9ab0 2135 eba0 aa35 69a0 9f35
00000190: 9456 2736 6914 cc35 5d08 94b5 f611 4436
000001a0: 14f0 4bb6 081c d636 396d 2034 60d2 b3b6
000001b0: c1aa 97b6 9e56 84b4 0b1f 6fb6 e448 1834
000001c0: 65cd 0237 0270 b635 3393 b0b5 4eb4 b636
000001d0: ba63 4334 767c 5cb4 721d d436 3d99 0cb6
000001e0: 7d5d e2b4 0814 b4b4 7519 b1b6 5b91 23b6
000001f0: 4de9 ccb5 f821 7235 85f2 f3b5 b8a2 0835
00000200: 4fc0 b636 bc1b d7b8 20b3 7ab8 bcfd 3e38
00000210: 4729 a9b7 eadc 1237 1d99 2db8 68fd 8437
00000220: 52b3 8f38 bb25 5e37 8297 2136 5293 31b7
00000230: f6eb e2b7 2ec2 13b8 1dab 0639 8cda 37b8
00000240: 34e7 4638 b784 9db8 8758 45b8 bd30 2138
00000250: 1cb0 9a38 7426 bfb6 0657 1a37 7102 c7b7
00000260: 2f6a d438 a358 8035 1550 fb37 e813 18b8
00000270: 86b6 dc38 f04b f637 70c0 83b8 5052 a7b7
00000280: 9c1a 2f37 d934 b536 afa9 2db8 2265 69b8
00000290: ac4a b738 9d8d 4e38 1d64 1cb6 f871 0239
000002a0: 1768 8b37 546e ce37 2c4b a937 1a53 d6b7
000002b0: 6aac 1736 57f4 35b9 a216 86b8 2747 8538
000002c0: 8cab 57b8 63af f637 fbdd d4b8 7a17 8037
000002d0: fcd1 e738 e556 26b7 a3d6 1339 35bc 1738
000002e0: 11c2 85b8 b1ba 9838 806c 3bb8 c444 72b8
000002f0: 394f ddb6 edbd 6bb5 7a90 c6b6 67ca e8b7
00000300: 8c25 ac38 675f db37 acde abb7 bba7 98b8
00000310: 1063 6fb8 ce3b 3cb7 f83f 81b7 fb24 45b8
00000320: bf44 2db7 8dc6 c3b8 b90b a038 f286 a838
00000330: 6f29 0cb7 4b99 1138 bef1 d336 c173 a338
00000340: 1e1a bcb8 4afd 88b8 c09c 8736 4355 0eb8
00000350: 133d a3b8 4f0a 47b8 53f5 5cb8 5006 d9b8
00000360: e1af c236 63f3 40b7 05a7 46b7 3c49 5837
00000370: 4ef0 f3b7 b5fe 68b7 1f42 b7b6 b97b d2b8
00000380: 1348 d438 3ab7 0db8 3e8e 4f36 5b53 95b7
00000390: f26d 17b8 f143 6ab8 ac1d b537 6be6 73b8
000003a0: 93cb b638 d409 0eb9 b181 1835 c35e 0839
000003b0: eaf6 c638 2ca8 35b7 af67 9038 1e95 3a37
000003c0: 7341 26b9 85fa 10b5 b954 0738 38ea e0b8
000003d0: 79d2 a7b6 dbb5 b137 0a34 e7b8 3b64 0238
000003e0: f3be 7cb7 5e80 2f37 2478 e738 554f 0738
000003f0: 4f4f 8c37 acbf 16b7 e86f c637 5ed4 13b8

exp_avg_sq f4 [64, 128]
2.9339288e-11 1.3560071e-09 2.856712e-10 1.629891e-10 6.289427e-11 5.1860634e-11 5.9296246e-10 8.234576e-11
8.1313417e-10 1.96307e-10 4.0051046e-10 7.386215e-11 4.624004e-10 3.542308e-10 3.6327663e-09 1.1714041e-10
7.2911127e-10 1.7579717e-09 1.2658389e-09 1.9435256e-10 5.2088844e-10 8.174677e-11 1.5507158e-10 1.7292581e-10
3.2906053e-09 1.4612256e-10 9.2000595e-11 1.0958257e-10 2.1543218e-09 3.823509e-10 1.2785479e-09 1.1778865e-10
4.2669315e-10 8.645952e-11 8.903873e-10 9.224936e-10 2.4380304e-09 6.6407063e-10 6.49025e-11 4.1025157e-09
6.2075435e-11 2.2091609e-10 2.3060649e-10 8.2483395e-11 1.4201126e-10 9.444154e-09 6.801923e-10 1.5132329e-09
8.5261104e-10 1.2586213e-10 1.9158026e-09 7.7428716e-11 2.9607299e-09 2.263891e-10 3.9142316e-09 1.2561414e-09
1.588444e-09 1.6767336e-09 4.283689e-10 1.2210527e-09 3.594526e-11 5.1652734e-11 8.413004e-11 3.5353054e-10
1.6661912e-09 2.4912247e-10 7.212405e-11 9.917119e-10 1.6319218e-09 3.0881028e-10 2.8700609e-10 8.524977e-10
1.5774446e-11 2.8360874e-09 1.8387816e-09 1.7894354e-09 5.8519314e-11 2.432423e-10 1.521274e-11 1.2607305e-09
1.7267685e-09 2.0985809e-09 8.5594344e-11 3.5471515e-11 2.8186826e-09 8.403565e-10 6.466615e-10 2.3219746e-09
4.6384815e-10 3.5274905e-11 2.2254878e-10 6.653015e-10 8.017268e-11 8.1780464e-11 4.9883914e-10 1.881288e-09
2.2651299e-09 2.3903893e-10 5.7166324e-11 1.8593616e-10 3.0032316e-10 7.295959e-10 3.5939138e-10 1.2135379e-09
8.349861e-10 3.6163896e-09 1.088176e-11 4.910082e-09 3.519081e-09 2.354026e-10 1.5845601e-09 4.631921e-11
8.355637e-09 1.0510963e-10 2.6652233e-10 4.351521e-09 1.0593784e-11 1.5416377e-10 3.838876e-09 4.4450246e-10
1.2537704e-10 6.6794105e-11 2.92409e-09 1.0995057e-09 1.5171402e-10 7.4428984e-11 2.8796832e-10 2.845531e-10
3.9559067e-09 1.798681e-06 4.3484732e-07 3.7573201e-07 1.4010945e-07 5.4823428e-08 1.08442805e-07 1.8263933e-07
7.2115625e-07 1.2617171e-07 2.2613021e-07 1.6971043e-08 2.3379483e-08 1.7110439e-07 2.1809597e-06 2.1035628e-07
4.8706744e-07 7.225993e-07 6.628545e-08 2.8822876e-07 5.36304e-07 3.0402717e-08 1.0762375e-07 1.7075996e-08
1.2673133e-06 4.55702e-09 6.070751e-08 1.3033588e-07 1.2536776e-06 1.059628e-07 5.1726965e-07 5.6042944e-09
2.9720066e-08 4.4944343e-08 3.8141667e-07 6.539395e-07 8.964131e-07 2.3963173e-07 2.83011e-08 2.4152198e-06
1.2692736e-08 6.8680166e-08 1.1540441e-07 8.2410345e-08 4.4304613e-08 3.721963e-06 3.5039417e-07 2.9644184e-07
2.7592952e-07 2.4532234e-08 1.4679387e-06 2.5823152e-08 1.8713787e-06 5.25694e-08 3.1972781e-06 1.4032344e-07
5.722772e-07 4.4441632e-07 2.9203463e-07 4.3619403e-07 1.24799735e-08 8.811101e-09 2.634328e-08 2.1074065e-07
8.8163546e-07 2.4790805e-07 8.0469555e-08 4.2073344e-07 3.2243352e-07 1.8260653e-07 2.3869056e-08 2.0918374e-07
7.1680075e-09 8.927731e-07 7.2010783e-07 1.1175944e-06 3.4890114e-08 2.5810522e-07 7.190478e-08 6.209536e-07
7.6375693e-07 3.7953097e-07 4.6547424e-08 1.6185616e-07 1.0338108e-06 1.4858972e-07 1.9879532e-07 1.1781309e-06
2.3151687e-08 8.706501e-09 4.6804495e-08 3.7406274e-08 7.6280664e-08 5.3743616e-08 1.8210054e-08 1.3272618e-06
1.2114068e-06 1.7790077e-07 7.295971e-08 3.3504453e-08 7.1198855e-08 6.386167e-07 1.3148761e-07 3.8050393e-07
8.527781e-07 1.5383068e-06 3.1757321e-09 2.474832e-06 1.2561585e-06 2.1768744e-07 5.327921e-07 8.21274e-08
2.5069364e-06 2.123254e-08 8.893447e-08 1.1430702e-06 3.9569086e-09 2.9526413e-07 1.1771608e-06 5.828947e-08
5.5794267e-08 6.7562866e-08 1.2395777e-06 1.1048591e-07 2.0410367e-08 2.2786711e-08 3.3379223e-08 2.85961e-07
00000000: 1a09 012e 425e ba30 a60c 9d2f 5a35 332f
00000010: 544e 8a2e e215 642e 06fe 2230 8b14 b52e
00000020: 3b83 5f30 82d7 572f d62e dc2f b26c a22e
00000030: 1235 fe2f 8ebd c22f 4da4 7931 18cc 002f
00000040: a56a 4830 219d f130 bff9 ad30 62b1 552f
00000050: 442e 0f30 57c3 b32e c580 2a2f 4a22 3e2f
00000060: f120 6231 d8a9 202f bb4f ca2e 81f9 f02e
00000070: 3b0b 1431 1b33 d22f e8b8 af30 8f82 012f
00000080: b993 ea2f 6220 be2e 70bf 7430 b792 7d30
00000090: 498a 2731 d189 3630 dcb8 8e2e 1cf6 8c31
000000a0: 5d81 882e 5ae6 722f f58d 7d2f 0662 b52e
000000b0: 9e24 1c2f d43f 2232 47f8 3a30 26fa cf30
000000c0: 2b5d 6a30 0a63 0a2f 28a7 0331 7e44 aa2e
000000d0: b675 4b31 deea 782f f27d 8631 8ca4 ac30
000000e0: 6850 da30 d272 e630 907f eb2f f9d1 a730
000000f0: c416 1e2e cf2b 632e 0101 b92e 005b c22f
00000100: e4ff e430 dff4 882f 3b9a 9e2e c34c 8830
00000110: 254a e030 2fc5 a92f 84c8 9d2f 3155 6a30
00000120: e5c0 8a2d fae4 4231 60b8 fc30 29f0 f530
00000130: 72af 802e 4fb9 852f 0cd0 852d 0346 ad30
00000140: 4453 ed30 a036 1031 5539 bc2e 6001 1c2e
00000150: cab2 4131 d5fe 6630 c2c0 3130 9c90 1f31
00000160: d300 ff2f 0324 1b2e eab1 742f 6ee0 3630
00000170: 354d b02e 4fd6 b32e af1e 0930 f847 0131
00000180: 96a8 1b31 bd69 832f 8f6b 7b2e 6070 4c2f
00000190: ba1a a52f bf8c 4830 d793 c52f 92c9 a630
000001a0: ec84 6530 3384 7831 176f 3f2d 8ab5 a831
000001b0: 54d4 7131 f869 812f c1c7 d930 cbb6 4b2e
000001c0: 7b8c 0f32 7623 e72e af85 922f 6284 9531
000001d0: 295e 3a2d 3e81 292f 1ce7 8331 295e f42f
000001e0: 80da 092f bde1 922e 23f1 4831 6b1d 9730
000001f0: b3cf 262f cbab a32e f04f 9e2f 4a6f 9c2f
00000200: 86ec 8731 356a f135 f674 e934 37b8 c934
00000210: fe70 1634 ff76 6b33 10e1 e833 841b 4434
00000220: 7b95 4135 d179 0734 33ce 7234 b8c7 9132
00000230: 07d4 c832 d1b8 3734 9a5c 1236 4bde 6134
00000240: 05bf 0235 a5f8 4135 d058 8e33 dcbd 9a34
00000250: 88f6 0f35 2494 0233 c81e e733 83ae 9232
00000260: 8e18 aa35 f993 9c31 4e5e 8233 74f2 0b34
00000270: 0944 a835 aa8d e333 80da 0a35 e58f c031
00000280: 1e4b ff32 d408 4133 82c5 cc34 618a 2f35
00000290: 0aa1 7035 bca6 8034 c71a f332 2915 2236
000002a0: 3e0f 5a32 527d 9333 3fd4 f733 91f9 b033
000002b0: 7049 3e33 d6c6 7936 cf1d bc34 a826 9f34
000002c0: 7723 9434 f4ba d232 fd05 c535 b6d1 dd32
000002d0: 152c fb35 abc8 6133 d290 5636 d0ab 1634
000002e0: 979e 1935 1d98 ee34 efc8 9c34 0d2e ea34
000002f0: 8167 5632 a25f 1732 7c49 e232 f347 6234
00000300: 87a9 6c35 3918 8534 9bce ac33 2ae1 e134
00000310: ed1a ad34 8012 4434 9c08 cd32 fd9b 6034
00000320: 764a f631 e6a6 6f35 6f4d 4135 4000 9635
00000330: 16da 1533 b691 8a34 126a 9a33 9baf 2635
00000340: fa04 4d35 57c2 cb34 6feb 4733 afca 2d34
00000350: 78c1 8a35 088c 1f34 7174 5534 4520 9e35
00000360: 19df c632 9993 1532 1606 4933 a2a8 2033
00000370: bdcf a333 bbd3 6633 556c 9c32 5e24 b235
00000380: 9f97 a235 fe04 3f34 06ae 9c33 89e6 0f33
00000390: fce5 9833 686d 2b35 0a2f 0d34 1048 cc34
000003a0: 77ea 6435 d277 ce35 123c 5a31 4a15 2636
000003b0: 4799 a835 78bd 6934 3205 0f35 045e b033
000003c0: d73c 2836 d962 b632 3efc be33 986b 9935
000003d0: 56f5 8731 cb84 9e34 f0fe 9d35 f359 7a33
000003e0: 72a2 6f33 1417 9133 915f a635 4544 ed33
000003f0: df52 af32 82bc c332 d85c 0f33 2e86 9934

exp_avg f4 [64]
7.0880956e-06 -0.00015051514 -0.00028928544 6.3217914e-05 -0.0003387832 0.00029051988 0.00054124004 -0.0003111285
0.00054425513 -0.0004602772 -0.00036579414 -0.00021466307 -0.00018289249 -0.00017171194 -0.0007019306 -0.00023101646
-0.0002460054 -0.0028338018 0.000774596 -5.357978e-06 -0.00014559658 0.00043433742 0.00027071644 -0.00022215406
-0.00094422826 -0.00081350695 -0.0003395461 0.00034236826 -0.00030135008 0.0013517654 -0.0006996508 0.0002521921
0.00035451053 -8.83609e-05 -0.00020120769 6.3352e-05 -2.3444696e-05 -0.00038285626 0.00019220595 -0.0006011434
0.0019633584 -0.0001177063 -0.00027528795 -0.00065358984 0.013685006 0.00061425543 -0.0001649444 -0.00015802002
-0.00023474984 -0.0028337636 3.1646414e-05 -0.00010204136 0.00018264595 -5.9418217e-05 -0.0005480452 5.291859e-06
-0.00013071677 -0.00016108812 -0.0010168885 0.00013835618 0.0015739476 -0.0012661743 0.00021030326 -0.00041793523
00000000: 47d6 ed36 9ad3 1db9 3cab 97b9 dc93 8438
00000010: b69e b1b9 eb50 9839 01e2 0d3a f61e a3b9
00000020: 58ac 0e3a 5c51 f1b9 0fc8 bfb9 2e17 61b9
00000030: d4c6 3fb9 930d 34b9 c401 38ba 023d 72b9
00000040: 49fa 80b9 4eb7 39bb 420e 4b3a aec8 b3b6
00000050: 49ab 18b9 c8b7 e339 f2ee 8d39 07f2 68b9
00000060: 1686 77ba 8741 55ba 1b05 b2b9 e47f b339
00000070: 86fe 9db9 b82d b13a c568 37ba a738 8439
00000080: 99dd b939 664e b9b8 47fb 52b9 d9db 8438
00000090: 1aab c4b7 19ba c8b9 e48a 4939 0d96 1dba
000000a0: b0ab 003b 17d9 f6b8 8654 90b9 ac55 2bba
000000b0: 1337 603c fc05 213a edf4 2cb9 2db2 25b9
000000c0: 2e27 76b9 aab6 39bb 14bc 0438 0aff d5b8
000000d0: a684 3f39 d337 79b8 b1aa 0fba b990 b136
000000e0: 0411 09b9 c3e9 28b9 1e49 85ba b413 1139
000000f0: eb4c ce3a c2f5 a5ba da84 5c39 511e dbb9

exp_avg_sq f4 [64]
6.469881e-09 2.8376878e-06 9.062204e-06 4.7575446e-07 1.4071866e-05 9.306407e-06 3.360937e-05 1.0505453e-05
3.5709905e-05 2.383729e-05 1.4909053e-05 5.2468445e-06 3.74641e-06 3.6206604e-06 5.5669505e-05 6.30184e-06
6.61074e-06 0.00086922746 6.476195e-05 3.2698622e-09 2.5362187e-06 2.3225755e-05 8.636406e-06 6.074904e-06
0.000101293386 7.3163006e-05 1.3727519e-05 1.3679905e-05 1.102391e-05 0.00019253803 6.107836e-05 7.4385207e-06
1.5246459e-05 1.3324466e-06 4.3862888e-06 4.787527e-07 5.1346962e-08 1.7041713e-05 4.524995e-06 4.3206284e-05
0.0003853595 1.6112137e-06 8.298304e-06 5.017692e-05 0.012153809 3.965961e-05 3.2393364e-06 3.0472258e-06
6.929693e-06 0.00077455386 1.0911332e-07 1.7658942e-06 4.096335e-06 4.2392531e-07 3.6120076e-05 4.4713984e-09
2.0978578e-06 3.151892e-06 0.00010345877 2.2025586e-06 0.0002683023 0.00016548282 5.4487314e-06 2.1577871e-05
00000000: ad4d de31 1b6f 3e36 df09 1837 326b ff34
00000010: 3416 6c37 b722 1c37 c9f7 0c38 9440 3037
00000020: 38c7 1538 31f6 c737 e521 7a37 0d0e b036
00000030: d56a 7b36 79fa 7236 ad7e 6938 6574 d336
00000040: d3d1 dd36 dedc 633a cfd0 8738 06b4 6031
00000050: e833 2a36 eed4 c237 15e5 1037 07d7 cb36
00000060: 796d d438 176f 9938 3f4f 6637 bf82 6537
00000070: 55f3 3837 09e4 4939 3217 8038 6898 f936
00000080: 0bcb 7f37 84d6 b235 ef2d 9336 a383 0035
00000090: 9588 5c33 cdf4 8e37 69d5 9736 6538 3538
000000a0: 140a ca39 e240 d835 f238 0b37 0f75 5238
000000b0: c520 473c 2f58 2638 6063 5936 f17e 4c36
000000c0: 9c85 e836 6e0b 4b3a af51 ea33 aa03 ed35
000000d0: 4073 8936 da97 e334 a37f 1738 d6a2 9931
000000e0: ecc8 0c36 1885 5336 01f8 d838 abcf 1336
000000f0: edaa 8c39 7585 2d39 3fd4 b636 2002 b537

exp_avg f4 [1, 64]
-0.23086603 -0.11006868 -0.54262906 0.39983177 -0.15874681 0.5615752 0.6949247 -0.33282694
0.28791386 -0.24903938 -0.22200382 -0.22227456 -0.22239399 -0.109972045 -0.2211276 -0.15550828
-0.33317584 -0.6888964 0.6924933 -0.1947615 0.006570275 0.60116017 0.5827347 -0.28860784
-0.3805205 -0.38010028 -0.45814428 0.69535816 -0.60149133 0.6428634 -0.19415276 0.10058205
0.60110897 -0.07569387 -0.274636 0.28712478 0.2865367 -0.55170757 0.6018952 -0.58233476
0.36828035 -0.12861261 -0.21287103 -0.28675616 0.5376353 0.533298 -0.60167974 -0.55240816
-0.15937975 -0.63298863 0.1640876 -0.42819124 0.10949732 0.08701847 -0.60083586 -0.3502023
-0.11005095 -0.601758 -0.64144856 0.2227713 0.57869244 -0.6330179 0.48911864 -0.48877054
00000000: 2568 6cbe b06b e1bd bde9 0abf c0b6 cc3e
00000010: 868e 22be 64c3 0f3f 96e6 313f 4b68 aabe
00000020: 7269 933e 2e04 7fbe f854 63be f19b 63be
00000030: 40bb 63be 0639 e1bd 466f 62be 903d 1fbe
00000040: 0696 aabe 845b 30bf 3e47 313f 8f6f 47be
00000050: 764b d73b a2e5 193f 1a2e 153f 68c4 93be
00000060: 95d3 c2be 819c c2be e391 eabe fe02 323f
00000070: 56fb 19bf b292 243f fbcf 46be f6fd cd3d
00000080: 47e2 193f 6305 9bbd 179d 8cbe 0502 933e
00000090: f0b4 923e b53c 0dbf ce15 1a3f e413 15bf
000000a0: 3e8f bc3e 06b3 03be ddfa 59be b4d1 92be
000000b0: 78a2 093f 3886 083f af07 1abf 9f6a 0dbf
000000c0: 7234 23be 8b0b 22bf 9406 283e e23b dbbe
000000d0: 2240 e03d bd36 b23d 61d0 19bf b74d b3be
000000e0: 6462 e1bd d00c 1abf f935 24bf 291e 643e
000000f0: 3025 143f 760d 22bf c26d fa3e 2240 fabe

exp_avg_sq f4 [1, 64]
19.164415 8.231378 33.665806 25.726881 7.2458177 42.804375 53.52449 7.7160573
7.572979 7.565306 7.306566 7.306365 7.3062983 8.232987 7.307206 7.048772
7.721414 52.70237 53.197903 13.976113 10.371787 42.894222 42.76152 7.584298
9.437236 9.42521 33.559544 53.58435 42.93705 42.508408 7.543586 8.104745
42.88884 7.873864 7.170322 19.09802 7.5826745 33.55995 42.986786 42.709553
9.085237 8.150569 7.1673803 7.5546145 42.55805 33.283707 42.960712 33.63077
7.245373 41.40928 8.1379795 33.542934 8.241161 10.349108 42.854935 25.74247
8.231685 42.9699 42.356396 7.306066 42.098446 42.52047 33.54212 33.50376
00000000: b950 9941 b9b3 0341 c9a9 0642 a7d0 cd41
00000010: bddd e740 ae37 2b42 1419 5642 f1e9 f640
00000020: d855 f240 fd16 f240 64cf e940 becd e940
00000030: 32cd e940 51ba 0341 a2d4 e940 8a8f e140
00000040: d315 f740 3acf 5242 a7ca 5442 299e 5f41
00000050: d7f2 2541 af93 2b42 cc0b 2b42 92b2 f240
00000060: ebfe 1641 a9cd 1641 f93c 0642 6056 5642
00000070: 8abf 2b42 9c08 2a42 0e65 f140 09ad 0141
00000080: 2c8e 2b42 b2f6 fb40 4773 e540 bfc8 9841
00000090: 45a5 f240 643d 0642 78f2 2b42 95d6 2a42
000000a0: 215d 1141 bb68 0241 2e5b e540 67bf f140
000000b0: 713b 2a42 8422 0542 c5d7 2b42 e985 0642
000000c0: 18da e740 1aa3 2542 2a35 0241 f72b 0642
000000d0: ccdb 0341 f295 2541 746b 2b42 94f0 cd41
000000e0: fbb4 0341 2de1 2b42 f36c 2942 4bcb e940
000000f0: cf64 2842 f614 2a42 222b 0642 da03 0642
